checkpoint_second_actor.pth (torch_old, 47326 bytes, 6 tensors)

fc1.weight f4 [128, 24]
0.15935186 1.1963257 -0.1026915 0.38597935 -0.26378414 -0.16887538 -0.13125806 0.3643504
0.0043579177 0.8985156 0.10553137 0.03157228 0.29989162 0.1834361 -0.051112764 0.050147057
0.100590825 0.92055666 0.15392677 -0.41310975 0.76777613 0.18871178 0.22475341 -0.41533414
-0.15809704 0.15563339 -0.3443704 -0.1286708 -0.5834995 0.3428018 -0.22842497 0.0028840909
-0.062728 0.34744325 -0.20814912 -0.078985274 -0.2443058 -0.18434772 -0.3149759 -0.2349545
-0.03239778 0.42518064 -0.1949189 -0.09704576 0.05874797 -0.8826852 -0.20267484 -0.2188949
0.15711904 0.4171472 -0.00438578 -0.2806012 0.50789714 0.18566178 0.08071721 -0.37182274
0.13530686 0.39122325 -0.15580814 -0.097499736 -0.050252866 0.42772356 -0.12042965 0.02651915
0.12540288 0.6237369 -0.17242777 0.23811148 -0.592281 0.76993203 -0.13371661 0.28307247
0.08670573 0.3308306 -0.091607496 0.38135546 0.0989505 0.60773367 -0.20718548 0.37483332
0.08162933 0.5786667 -0.12028091 0.01543583 -0.05438902 0.305331 -0.22179176 0.11482414
0.2747009 0.65938014 -0.17766443 -0.13726895 0.008676139 -0.07509528 -0.23063196 -0.17083025
0.14879669 0.43566528 -0.103562124 -0.49469566 -0.2554954 -0.57476944 -0.12824343 -0.49297982
0.16152038 0.36509603 0.029940063 -0.114063345 -0.3674381 -0.48509213 0.045386262 -0.013140957
0.23212339 0.4336087 -0.3562317 -0.078885846 -0.29921976 -0.74527025 -0.34616914 -0.0037524267
0.17118996 0.2654164 -0.08936257 -0.12612267 0.6725089 -0.30437428 -0.13863009 -0.09391783
0.3338338 0.34523958 0.1318409 -0.24746937 0.30437434 -0.6214997 0.011915023 -0.28083098
0.42362627 0.35913405 -0.24854083 0.060484413 0.23228945 -0.6524537 -0.16708307 0.0017513002
0.039144456 -0.20646156 0.11472914 -0.05866645 0.93187433 0.5385753 -0.0186 -0.077257775
0.13140479 -0.08813097 -0.07669277 -0.020386891 0.27169782 0.14380364 0.011268137 -0.07646392
0.229448 -0.0389234 0.008731701 0.00057166885 -0.39639145 -0.05023047 0.0031584974 -0.038409155
0.55708075 0.1310854 -0.38803506 0.45824105 -0.2088009 -0.17633452 -0.30361688 0.39890972
0.5579722 0.25500688 -0.07601972 -0.22833307 -0.2439428 -0.19571905 -0.07416577 -0.20175074
0.52690333 0.34899873 0.055832267 0.2794983 -0.13418736 -0.14167123 0.12830128 0.32751596
0.13458033 0.49906284 -0.19581936 -0.3494616 0.101626255 -0.9953178 -0.2184914 -0.27581266
0.18154466 0.458266 0.04146551 -0.2532441 0.04264968 -1.076603 0.049434975 -0.3810405
0.2920956 0.25611338 0.122446015 -0.38560903 0.012420252 -1.1410079 0.03116387 -0.35711196
0.17341374 0.34753415 -0.027425561 0.14850906 0.7594669 0.01241163 -0.054203365 0.16632335
0.1451324 0.35644814 -0.2669303 0.047964104 0.47019345 0.28383628 -0.115706 0.060806863
0.18898678 0.41947833 0.022607945 -0.3391908 0.08341178 0.3279033 -0.03542827 -0.31716222
0.55831033 0.0737915 -0.1977668 0.41911882 -0.5851276 -0.5739208 -0.09331218 0.28111908
0.22139513 -0.19055477 -0.36751968 0.24675615 0.014945304 -0.17569998 -0.29955968 0.103747614
00000000: 222d 233e 3321 993f ec4f d2bd 169f c53e
00000010: b70e 87be abed 2cbe 8368 06be 238c ba3e
00000020: ddcc 8e3b 1e05 663f d520 d83d ef51 013d
00000030: 658b 993e acd6 3b3e 9e5b 51bd 0067 4d3d
00000040: 9002 ce3d 9aa9 6b3f fb9e 1d3e 1f83 d3be
00000050: fa8c 443f a93d 413e c225 663e ada6 d4be
00000060: 31e4 21be 5c5e 1f3e 5151 b0be 47c2 03be
00000070: 3960 15bf b883 af3e 3ce8 69be 0403 3d3b
00000080: 8a77 80bd 15e4 b13e 0b25 55be 08c3 a1bd
00000090: 4d2b 7abe a6c5 3cbe 8544 a1be ea97 70be
000000a0: 89b3 04bd 47b1 d93e d298 47be edbf c6bd
000000b0: b6a1 703d a8f7 61bf fe89 4fbe fc25 60be
000000c0: d0e3 203e 5194 d53e 97b6 8fbb f6aa 8fbe
000000d0: 8c05 023f 1f1e 3e3e 114f a53d 8d5f bebe
000000e0: e28d 0a3e 6a4e c83e 2b8c 1fbe f1ad c7bd
000000f0: f3d5 4dbd 95fe da3e d2a3 f6bd b03e d93c
00000100: 9d69 003e 39ad 1f3f e890 30be 7fd3 733e
00000110: ba9f 17bf 441a 453f 02ed 08be e0ee 903e
00000120: c692 b13d a162 a93e b69c bbbd 0641 c33e
00000130: 8fa6 ca3d 6f94 1b3f 6e28 54be 27ea bf3e
00000140: 472d a73d 8023 143f d655 f6bd 90e6 7c3c
00000150: 05c7 5ebd 5854 9c3e 611d 63be eb28 eb3d
00000160: 99a5 8c3e 23cd 283f aaed 35be 3b90 0cbe
00000170: 5d26 0e3c 8ecb 99bd c92a 6cbe 20ee 2ebe
00000180: 295e 183e 850f df3e 6118 d4bd c048 fdbe
00000190: 4bd0 82be 1724 13bf 3f52 03be da67 fcbe
000001a0: 9965 253e deed ba3e dd44 f53c 0b9a e9bd
000001b0: d920 bcbe ff5d f8be f2e6 393d 2b4d 57bc
000001c0: c1b1 6d3e f601 de3e 0064 b6be e78e a1bd
000001d0: 5533 99be 08ca 3ebf 153d b1be 46eb 75bb
000001e0: 6c4c 2f3e a9e4 873e b903 b7bd 4d26 01be
000001f0: 8b29 2c3f f2d6 9bbe 0cf5 0dbe fe57 c0bd
00000200: 44ec aa3e 3ec3 b03e 4d01 073e 9c68 7dbe
00000210: f4d6 9b3e 9b1a 1fbf 3b37 433c 14c9 8fbe
00000220: 8be5 d83e 6be0 b73e 7d81 7ebe 81be 773d
00000230: 49dd 6d3e 3507 27bf d317 2bbe e28b e53a
00000240: f055 203d a96a 53be 1df7 ea3d 3b4c 70bd
00000250: 518f 6e3f 12e0 093f 075f 98bc 5339 9ebd
00000260: fa8e 063e 037e b4bd 1911 9dbd 6902 a7bc
00000270: fa1b 8b3e 4341 133e fe9d 383c 1e99 9cbd
00000280: 6bf4 6a3e 256e 1fbd 690f 0f3c 0cdc 153a
00000290: d2f3 cabe 77be 4dbd cbfe 4e3b eb52 1dbd
000002a0: d89c 0e3f 403b 063e 88ac c6be 929e ea3e
000002b0: e7cf 55be 0991 34be ac73 9bbe e53d cc3e
000002c0: 44d7 0e3f 4390 823e 3ab0 9bbd 25d0 69be
000002d0: 24cc 79be 936a 48be 39e4 97bd bf97 4ebe
000002e0: 23e3 063f f6af b23e 60b0 643d 671a 8f3e
000002f0: 6968 09be 4312 11be 6961 033e 2cb0 a73e
00000300: 6dcf 093e 2a85 ff3e df84 48be a1ec b2be
00000310: 6d21 d03d 26cd 7ebf 36bc 5fbe 5137 8dbe
00000320: d8e6 393e d7a1 ea3e bdd7 293d 36a9 81be
00000330: 6eb1 2e3d 21ce 89bf 547c 4a3d be17 c3be
00000340: 8e8d 953e 4b21 833e fac4 fa3d 8c6e c5be
00000350: 507e 4b3c 8c0c 92bf 5f4b ff3c 61d7 b6be
00000360: 5f93 313e ffef b13e 92ab e0bc c212 183e
00000370: 6c6c 423f 265a 4b3c 5904 5ebd ab50 2a3e
00000380: 969d 143e 5f80 b63e 17ab 88be 0276 443d
00000390: 32bd f03e fd52 913e 44f7 ecbd 9e10 793d
000003a0: c085 413e ddc5 d63e 4c34 b93c 6baa adbe
000003b0: ccd3 aa3d f1e2 a73e 3c1d 11bd 1663 a2be
000003c0: 6ded 0e3f ff1f 973d 6183 4abe be96 d63e
000003d0: ecca 15bf 79ec 12bf 751a bfbd d7ee 8f3e
000003e0: 68b5 623e ca20 43be 8a2b bcbe a5ad 7c3e
000003f0: 26dd 743c b2ea 33be e35f 99be a179 d43d

fc1.bias f4 [128]
-0.0960418 -0.1172363 -0.17727749 -0.4130197 -0.25658345 -0.24235937 -0.12024441 -0.2531178
-0.32917163 -0.19909726 0.02484655 -0.027562404 -0.3379187 -0.043602284 -0.24728544 -0.16308564
-0.36849663 -0.19802645 -0.70980024 -0.38649595 -0.22102273 -0.420003 0.17452672 -0.4947171
-0.047060743 0.119482554 -0.31433716 -0.26915413 0.012616482 -0.47847775 -0.16562267 -0.35546583
-0.29328397 -0.044535633 0.21418048 -0.41667515 0.1259979 -0.08818781 -0.25972405 -0.0036785083
-0.059796523 -0.42063746 -0.174837 -0.34557605 -0.28079703 -0.16987109 -0.25478506 -0.26340055
0.047671523 0.07743077 -0.045714345 0.010018455 -0.14049682 -0.24944589 -0.56538963 -0.29354376
-0.12437992 -0.048819534 -0.23045243 0.07308455 -0.023681672 -0.09674613 0.08349746 -0.036927894
-0.25230584 0.033718497 -0.26910594 -0.25149474 0.07632305 -0.102251515 0.056951083 0.05570741
0.15894298 -0.111010596 -0.05994614 -0.12429367 -0.012217758 -0.2783837 -0.22085528 -0.2421184
-0.35732004 -0.027552867 0.19704686 -0.20207265 -0.20778593 0.07235641 0.061217617 0.07224299
-0.12935881 3.0947223e-05 0.120369 -0.07091056 -0.16009222 -0.23260964 -0.107366785 -0.007935411
-0.46461284 0.02502179 -0.35979787 -0.16143857 0.17965156 0.18763344 -0.22446394 -0.27493972
-0.3174209 -0.03440042 -0.30400077 0.12848896 -0.23101045 0.062332224 -0.3233424 0.16757374
-0.43939137 0.056456376 -0.27673152 -0.050530683 -0.55512726 -0.19991753 -0.10675549 -0.1942781
0.060293358 -0.06806065 -0.0069017266 -0.13740915 0.23353875 -0.10100566 -0.40636325 0.106539376
00000000: 90b1 c4bd 9619 f0bd 3b88 35be 5177 d3be
00000010: e85e 83be 0e2d 78be b442 f6bd a898 81be
00000020: 2f89 a8be 27e0 4bbe fe8a cb3c 8dca e1bc
00000030: ae03 adbe 4f98 32bd 6538 7dbe ecff 26be
00000040: 97ab bcbe 72c7 4abe 78b5 35bf cce2 c5be
00000050: c853 62be a20a d7be 22b7 323e 8f4b fdbe
00000060: c4c2 40bd 45b3 f43d cdf0 a0be 92ce 89be
00000070: 5cb5 4e3c 09fb f4be fd98 29be 9eff b5be
00000080: 5129 96be ff6a 36bd 2152 5b3e 7256 d5be
00000090: 9805 013e cf9b b4bd 8dfa 84be 2113 71bb
000000a0: 33ed 74bd cb5d d7be 7808 33be 58ef b0be
000000b0: a1c4 8fbe b0f2 2dbe 3073 82be 70dc 86be
000000c0: 3743 433d 0694 9e3d f73e 3bbd 7224 243c
000000d0: 66de 0fbe be6e 7fbe 60bd 10bf 5e4b 96be
000000e0: e6ba febd fef6 47bd b9fb 6bbe 5aad 953d
000000f0: 1100 c2bc d622 c6bd b700 ab3d b441 17bd
00000100: 3b2e 81be 681c 0a3d 41c8 89be ebc3 80be
00000110: 424f 9c3d 3e69 d1bd 8a45 693d 742d 643d
00000120: f3c1 223e 8659 e3bd 158a 75bd ae8d febd
00000130: fe2c 48bc 4f88 8ebe e327 62be e3ed 77be
00000140: a7f2 b6be 8db6 e1bc a7c6 493e 22ec 4ebe
00000150: d6c5 54be 992f 943d 53bf 7a3d 22f4 933d
00000160: a376 04be 54cd 0138 0684 f63d 8e39 91bd
00000170: 37ef 23be 3931 6ebe 1ee3 dbbd 8703 02bc
00000180: bce1 edbe 7ffa cc3c 6d37 b8be 2750 25be
00000190: 94f6 373e fb22 403e e0d9 65be e6c4 8cbe
000001a0: fe84 a2be 74e7 0cbd fda5 9bbe 9c92 033e
000001b0: 018e 6cbe 1350 7f3d 238d a5be 7398 2b3e
000001c0: e8f7 e0be cd3e 673d c1af 8dbe 43f9 4ebd
000001d0: d21c 0ebf 2eb7 4cbe 9fa2 dabd d7f0 46be
000001e0: 2bf6 763d 6263 8bbd e127 e2bb fcb4 0cbe
000001f0: c824 6f3e 0edc cebd d80e d0be 5131 da3d

fc2.weight f4 [64, 128]
0.12692188 -0.080607295 -0.15215743 -0.24825495 0.010955277 0.36663288 -0.033824656 -0.23663774
-0.40672892 -0.05746048 -0.11418979 -0.1286158 0.053814717 0.1466627 0.119288504 -0.2834538
0.36127162 0.20889887 0.0014594148 -0.4834268 -0.19624214 -0.55326587 -0.06908859 0.014007267
-0.42396185 0.30091628 -0.31420773 -0.8746628 -0.003884986 0.11126504 -0.3063724 -0.4143929
-0.12178227 0.37296322 -0.1694112 0.07115219 0.15914948 -0.1983681 -0.38572407 0.007913664
0.019024866 0.44816574 -0.4866013 0.3933654 0.4706172 -0.0024287738 0.27091065 -0.13772732
0.111909546 -0.35871622 -0.14988986 -0.6995264 -0.21038835 -0.13441607 -0.119396456 0.039185345
0.0010241993 0.42744255 -0.57568884 0.03600693 -0.61724776 -0.6883742 -0.11777901 0.15579227
-0.11282967 -0.0034337665 -0.054391753 -0.33659336 -0.44694945 0.08221288 0.033606373 0.27974933
0.19675972 -0.5677841 -0.06218374 0.13847898 -0.26803586 0.1194869 -0.53129214 -0.8963994
-0.64045006 0.18271072 -0.2957094 -0.7097452 -0.11881005 -0.22310121 -0.2952232 0.07671616
0.09332211 0.14903662 -0.3463533 -0.31670073 -0.28843927 -0.15977474 -0.28716213 -0.24335715
-0.15784374 -0.09449603 -0.5664825 0.08374992 0.046285518 -0.23137555 -0.5308633 -0.36424175
0.6938468 -0.7507786 -0.31132334 -0.23034005 -0.5002653 -0.1519424 -0.28938943 0.12361144
-0.036651246 0.2245572 0.084745415 -0.24911626 -0.00045347112 -0.19860327 -0.2911407 -0.4184453
-0.1355267 0.42617327 0.14048544 0.11209072 -0.27630424 -0.11385702 -0.30483612 -0.19240978
0.28136793 -0.13585247 -0.22001562 0.4221081 0.16612226 -0.028209228 -0.16118668 -0.16958588
-0.49152327 0.15078995 0.09052251 -0.15372045 0.10170885 0.15040311 -0.44965428 -0.23690175
-0.04631674 -0.47002947 -0.008016731 -1.0195249 -0.30634156 -0.20388335 -0.13690978 0.42157996
-0.6527791 0.043903653 -0.7733996 -0.26048777 -1.1141596 -0.09093138 -0.10973062 -0.46944785
0.4753027 -0.28507504 -0.21931966 -0.42137823 -0.35264176 0.2068016 0.34171987 -0.005701003
-0.8876713 -0.2999359 0.25229293 -1.0265902 0.09344891 -0.12187082 0.23721331 -0.016422104
0.04631723 -0.102050476 -0.2656819 -0.2889111 0.0065060644 0.10081939 -0.1267119 -0.48113906
-0.22493112 -1.1759928 0.13364588 0.401369 0.16136009 -1.0224594 -0.25739506 -0.46300307
-0.5950029 -0.18145953 0.3633992 -0.010883741 -0.117383584 -0.014536061 0.1795531 0.25034544
-0.17234936 0.012821126 -0.25982305 0.24756013 -0.3491675 0.08831298 0.3231732 -0.3425192
0.54438317 -0.04273333 0.24271809 0.16897748 0.05221627 0.014296524 -0.8337588 -0.24971764
0.08560508 -0.222867 0.06851144 0.06263896 0.01629285 -0.12351724 -0.38190326 -1.4804342
-0.096471846 0.13973126 -0.064797334 -0.5309809 -0.074811034 -0.31899238 -0.39820254 0.14632581
-0.103488915 -0.31964627 -0.36361536 0.26248112 0.0086950855 0.23493573 -0.10623255 -0.20004146
-0.33598068 0.08737699 -0.14084028 -0.40527403 -0.583889 0.0100181 -0.25793797 0.2866124
0.19817631 -0.051596574 0.07024418 0.05588805 0.25159845 0.36255738 0.41580948 0.10239757
00000000: cff7 013e 7015 a5bd 28cf 1bbe 8c36 7ebe
00000010: c37d 333c 4eb7 bb3e b98b 0abd 2a51 72be
00000020: c63e d0be ae5b 6bbd 56dc e9bd dcb3 03be
00000030: d26c 5c3d bf2e 163e 884d f43d db20 91be
00000040: 98f8 b83e 96e9 553e d649 bf3a b883 f7be
00000050: b3f3 48be d5a2 0dbf 527e 8dbd bc7e 653c
00000060: 8711 d9be b311 9a3e d6df a0be e7e9 5fbf
00000070: 409b 7ebb edde e33d d8dc 9cbe 4e2b d4be
00000080: fc68 f9bd 09f5 be3e 217a 2dbe 3db8 913d
00000090: 15f8 223e 0221 4bbe a07d c5be 50a8 013c
000000a0: 09da 9b3c fb75 e53e ce23 f9be 3167 c93e
000000b0: bdf4 f03e 102c 1fbb cdb4 8a3e 6408 0dbe
000000c0: d530 e53d a7a9 b7be ba7c 19be 2a14 33bf
000000d0: 0b70 57be 5ea4 09be 2186 f4bd d080 203d
000000e0: 6d3e 863a c0d9 da3e 5860 13bf 017c 133d
000000f0: f303 1ebf 4b39 30bf 1f36 f1bd 0288 1f3e
00000100: 3e13 e7bd 0b09 61bb e3c9 5ebd f755 acbe
00000110: 8fd6 e4be 3a5f a83d d6a6 093d 4e3b 8f3e
00000120: 617b 493e 4c5a 11bf 61b4 7ebd 6fcd 0d3e
00000130: ff3b 89be 8cb5 f43d c302 08bf 6e7a 65bf
00000140: 89f4 23bf 8518 3b3e 3967 97be ddb1 35bf
00000150: af52 f3bd a574 64be 7f27 97be 5d1d 9d3d
00000160: aa1f bf3d 0e9d 183e 3855 b1be 9926 a2be
00000170: 50ae 93be fd9b 23be ea06 93be 9e32 79be
00000180: caa1 21be 2287 c1bd ff04 11bf 1485 ab3d
00000190: e295 3d3d b6ed 6cbe a8e6 07bf e57d babe
000001a0: f29f 313f 0733 40bf c665 9fbe 43de 6bbe
000001b0: 6311 00bf ca96 1bbe da2a 94be ff27 fd3d
000001c0: 9e1f 16bd 53f2 653e 018f ad3d 5518 7fbe
000001d0: ddbf edb9 a85e 4bbe 6510 95be 763e d6be
000001e0: 83c7 0abe 6233 da3e 6adb 0f3e d28f e53d
000001f0: c077 8dbe df2d e9bd 7b13 9cbe 1207 45be
00000200: 750f 903e e91c 0bbe c64b 61be 8e1e d83e
00000210: f41b 2a3e 0a17 e7bc 1f0e 25be eca7 2dbe
00000220: f0a8 fbbe ae68 1a3e de63 b93d e568 1dbe
00000230: bb4c d03d 4603 1a3e 1639 e6be 5f96 72be
00000240: 9fb6 3dbd b4a7 f0be 9b58 03bc cb7f 82bf
00000250: cdd8 9cbe ccc6 50be 1432 0cbe 54d9 d73e
00000260: 881c 27bf 51d4 333d 84fd 45bf a75e 85be
00000270: c89c 8ebf 3b3a babd 73ba e0bd 785b f0be
00000280: e05a f33e 5bf5 91be 5595 60be e3be d7be
00000290: 768d b4be ccc3 533e e8f5 ae3e 7bcf babb
000002a0: 6d3e 63bf 3391 99be 8a2c 813e 4f67 83bf
000002b0: 2462 bf3d 6997 f9bd 0ce8 723e a687 86bc
000002c0: 23b7 3d3d d7ff d0bd 7507 88be 28ec 93be
000002d0: d330 d53b 657a ce3d c4c0 01be dc57 f6be
000002e0: 5854 66be ef86 96bf 77da 083e 3d80 cd3e
000002f0: 943b 253e f3df 82bf 49c9 83be bd0e edbe
00000300: 1c52 18bf 87d0 39be 760f ba3e b851 32bc
00000310: ce66 f0bd a928 6ebc c5dc 373e 472d 803e
00000320: 5a7c 30be b30f 523c 8707 85be 6780 7d3e
00000330: 15c6 b2be 70dd b43d f576 a53e ad5e afbe
00000340: b25c 0b3f 2509 2fbd 178b 783e 6f08 2d3e
00000350: bae0 553d f83b 6a3c 3771 55bf fbb5 7fbe
00000360: b751 af3d 3f37 64be ba4f 8c3d db48 803d
00000370: 9578 853c 9bf6 fcbd d388 c3be de7e bdbf
00000380: 0893 c5bd b615 0f3e 77b4 84bd 5dee 07bf
00000390: 8736 99bd f852 a3be 34e1 cbbe 6fd6 153e
000003a0: fff1 d3bd ada8 a3be cb2b babe ed63 863e
000003b0: d575 0e3c fe92 703e 7490 d9bd abd7 4cbe
000003c0: a905 acbe b5f2 b23d 6f38 10be 1480 cfbe
000003d0: c079 15bf f522 243c 7210 84be dcbe 923e
000003e0: bbee 4a3e ee56 53bd 2edc 8f3d deea 643d
000003f0: 83d1 803e 1fa1 b93e fbe4 d43e d1b5 d13d

fc2.bias f4 [64]
-0.1902792 -0.036347415 -0.22444008 -0.14686853 0.064317584 -0.23377575 -0.24238311 -0.3643135
-0.19277981 -0.20586094 -0.11704523 -0.1967013 -0.16456644 -0.14115743 -0.21738075 -0.22651228
-0.44661137 -0.06027554 -0.3831088 -0.22768609 -0.38445723 -0.2694074 -0.08915901 -0.43792963
-0.12927495 -0.26977193 -0.21941501 -0.4131524 -0.60238475 0.18949999 -0.28114495 -0.051592633
-0.13390091 -0.06587672 -0.1945917 0.055024914 -0.061796125 -0.08443884 -0.2415075 -0.5019098
0.13043123 -0.021332556 -0.092585705 -0.20753431 -0.14397384 0.054900553 -0.17301366 -0.014713365
-0.28743875 -0.3602973 -0.29871538 -0.35521394 0.081811056 -0.13932769 -0.17286505 0.031312797
0.14417194 -0.22116001 0.11099363 -0.16791478 -0.0073192925 -0.540561 0.107423775 -0.55169415
00000000: 8dd8 42be 07e1 14bd 9fd3 65be b464 16be
00000010: f0b8 833d e962 6fbe 4733 78be 4d87 babe
00000020: 1268 45be 36cd 52be 69b5 efbd 116c 49be
00000030: 1b84 28be 938b 10be 0f99 5ebe d6f2 67be
00000040: 3faa e4be 7ce3 76bd d626 c4be 8b26 69be
00000050: 94d7 c4be c4ef 89be 0099 b6bd 5038 e0be
00000060: a760 04be 8c1f 8abe 54ae 60be b688 d3be
00000070: e335 1abf 490c 423e 3bf2 8fbe cc52 53bd
00000080: 521d 09be 60ea 86bd 0c43 47be ce61 613d
00000090: ef1d 7dbd 45ee acbd be4d 77be 297d 00bf
000000a0: c48f 053e 9dc1 aebc 939d bdbd e083 54be
000000b0: e16d 13be 67df 603d 7e2a 31be 5310 71bc
000000c0: 2c2b 93be e378 b8be 39f1 98be 9ade b5be
000000d0: 8e8c a73d ebab 0ebe 8903 31be d941 003d
000000e0: cfa1 133e c577 62be a150 e33d daf1 2bbe
000000f0: add6 efbb 3562 0abf ff00 dc3d d43b 0dbf

fc3.weight f4 [2, 64]
0.176401 -0.14233434 -0.7714157 -0.13905337 0.19318944 0.89527947 -0.1532684 -0.22840011
0.06303154 0.12892565 -0.55000436 -0.1507594 -0.021254888 -0.1642318 0.025173109 0.32574925
-0.58336556 0.09373888 -0.027313733 0.5815867 -0.21568161 -0.054799937 -0.2467536 0.77016604
-0.5247488 -1.1220427 0.34542772 0.2951074 -0.22704567 -0.07610687 0.2071896 0.123629086
0.1644633 -0.112649806 0.30549085 -0.20596012 0.5645653 0.23713487 0.17120497 -0.096176304
-0.49707565 -0.020183137 -0.22321664 -0.68485135 -0.066855244 0.18192776 -0.096407205 0.19275905
0.056247536 0.20720802 0.120908536 -0.26183236 0.3031354 -0.076560795 -0.08016386 0.1318969
0.11049103 0.31030428 -0.11506987 -0.038170956 -0.4906034 0.44690073 0.13868764 -0.5433625
-0.40289015 -1.3691795 -0.098299965 0.3227605 0.14478356 0.3758015 0.2729265 -1.6038904
-0.4717725 -0.59657633 0.19915032 -0.28840286 0.10539922 0.98248434 -0.27545205 -0.005962397
-0.46237853 -0.5750527 -0.6030262 -0.30039346 -0.7330221 -0.63598526 -2.033975 0.37467054
-1.5624024 -0.24617556 -0.24607645 -0.14030989 0.62052953 -0.2019263 0.12324614 0.07284069
0.48141396 0.019007187 -0.38988778 -0.5878848 -0.24378237 0.54767126 0.35287008 0.8029904
0.012106013 -0.8897464 -0.14540985 -0.45201293 0.19072118 -0.5742226 0.3667147 -0.19462742
-0.12712193 -0.6011544 -0.23895627 0.2852937 0.45914537 0.20839548 0.52955925 0.72808456
-0.37928346 0.21654873 0.042779315 -0.6722477 -0.51092595 -0.001997624 0.082074896 -0.06558349
00000000: 77a2 343e 18c0 11be 807b 45bf 0264 0ebe
00000010: 74d3 453e 0931 653f 64f2 1cbe b8e1 69be
00000020: ae16 813d 1605 043e 16cd 0cbf ac60 1abe
00000030: bb1e aebc 622c 28be d637 ce3c 9bc8 a63e
00000040: 7257 15bf 2bfa bf3d 0dc1 dfbc dee2 143f
00000050: a4db 5cbe e675 60bd faac 7cbe 9a29 453f
00000060: f055 06bf 189f 8fbf e7db b03e 5118 973e
00000070: a97e 68be ebdd 9bbd 8329 543e 3f31 fd3d
00000080: 1169 283e f1b4 e6bd 4c69 9c3e 36e7 52be
00000090: 5a87 103f 7cd3 723e 5b50 2f3e 15f8 c4bd
000000a0: b380 febe 1b57 a5bc e792 64be 6b52 2fbf
000000b0: 67eb 88bd 454b 3a3e 2471 c5bd a162 453e
000000c0: d163 663d 572e 543e e59e f73d e40e 86be
000000d0: 9034 9b3e e8cb 9cbd f32c a4bd fb0f 073e
000000e0: 1f49 e23d 34e0 9e3e c1a9 ebbd 2659 1cbd
000000f0: 5e30 fbbe 2cd0 e43e 2204 0e3e ce19 0bbf
00000100: 9e47 cebe 4641 afbf 7e51 c9bd dd40 a53e
00000110: 2442 143e 0e69 c03e 06bd 8b3e 484c cdbf
00000120: 2a8c f1be 3ab9 18bf 10ee 4b3e 8aa9 93be
00000130: 8cdb d73d 1884 7b3f 0d08 8dbe 3660 c3bb
00000140: e1bc ecbe a736 13bf ed5f 1abf 2ccd 99be
00000150: 56a7 3bbf eecf 22bf a52c 02c0 d1d4 bf3e
00000160: cdfc c7bf 7215 7cbe 77fb 7bbe 65ad 0fbe
00000170: 06db 1e3f c5c5 4ebe 7968 fc3d 802d 953d
00000180: e47b f63e f6b4 9b3c 5f9f c7be 9e7f 16bf
00000190: 16a2 79be 2f34 0c3f 63ab b43e c790 4d3f
000001a0: 4c58 463c 6cc6 63bf 52e6 14be 3d6e e7be
000001b0: 6a4c 433e 4100 13bf 07c2 bb3e 694c 47be
000001c0: 402c 02be 41e5 19bf f4b0 74be 0412 923e
000001d0: 1a15 eb3e a065 553e 3291 073f c063 3a3f
000001e0: 7131 c2be f3be 5d3e 5d39 2f3d 6d18 2cbf
000001f0: 0bcc 02bf 92ea 02bb e216 a83d a350 86bd

fc3.bias f4 [2]
-0.064074256 0.07965215
00000000: 5d39 83bd ab20 a33d
