checkpoint_critic.pth (torch_old, 159714 bytes, 5 tensors)

fcs1.weight f4 [256, 24]
00000000: e8f9 013f 340d 243c 2624 433d 86ed c53d
00000010: b068 90bd 0061 c83e cd5b 07bd 614e d93d
00000020: fdbd ca3e a8ed febd 228d e63c b94b b73d
00000030: 311d 353e 68de f63d 92c3 f2bb 74a5 db3d
00000040: d06e fe3e 188f a3bd 844a 0f3c f9ad be3e
00000050: e382 dd3e f734 16bf b41e 1d3d 3426 a23e
00000060: 5390 f23d e955 1d3f ff2d 9dbd 4424 88be
00000070: c5c8 95bc 3ca9 5cbe cf66 febd 8aa9 65be
00000080: 512f 2f3e 814b c53e 67d1 f93c 0bbe babc
00000090: 7eae 0fbc 7f02 60bd c50f e6bc 6c05 bbbd
000000a0: 5fbb fd3d 0360 9a3e 2d5e 4e3d 3594 18be
000000b0: fddb 75be 1dbc 7b39 6f49 e63d 380f 51be
000000c0: 6e0a d63e 17fa 56be cecf f53b 049d 63be
000000d0: b774 aabd 74bf 46bf ce31 a8ba 4b8d 2ebe
000000e0: 3ccf 7e3e d7ce 5bbd 2ab9 dfbd 710a 57be
000000f0: ddfc 1abe 8400 1fbf 4129 09bd da0c 61be
00000100: 23bd 6e3e 82f1 17be b525 cfbc 0371 71be
00000110: 148f 76be df88 abbd f5b5 05bd 03dd 41be
00000120: aed9 da3d 633c 663d 5ab2 adbd 40a6 9a3e
00000130: b197 813e bda9 babe fb5a 6abd 934a 973e
00000140: b8e6 993d 1070 3b3d 383a 47bd 49e2 ad3d
00000150: 4f6e ca3d 5493 88be b2f5 ccbd e506 2f3d
00000160: f300 c13d 7108 b23c 676d 4e3d 9ad8 a43c
00000170: 55d5 783e e410 d4bf b15e 07bd e401 923d
00000180: 56b6 bf3d 659f 093e 8339 793a 8031 7dbe
00000190: a5ce 1dbe 1fe0 cd3e 3c08 ba3c 5b9e 8bbe
000001a0: c3f6 293d efa1 a73b cf50 85bd 71d7 85bc
000001b0: f72a b73c 6310 713e 585a 88bd 963e a43c
000001c0: af9d 873d 02d3 af3c 9ec6 fbbb c73c 16be
000001d0: 7d3c 623e b789 c2bf 8633 d5bc 880a dbbd
000001e0: 9e35 173e 65b2 ad3e f935 2ebd 08af f83d
000001f0: b065 07bc 4228 4c3d 4010 7ebd 8fa7 fe3d
00000200: b0c0 473e 3dac f23e 260e e2bd 1c3c 1bb9
00000210: d9e4 133d c202 e23c b581 5abd 4fee e43d
00000220: 8f20 143e b7da cc3e 1abd 173e ffe0 8cbe
00000230: b3ec 873e f884 1abf 2f7b 0e3e 472b 40be
00000240: 6074 a93d 42ad 293f 4052 04be 8a6f f83d
00000250: b081 c23d 4d91 37bf 60cc c8bd 4893 fd3d
00000260: 9835 3e3e a3b1 203f dbb6 4f3d 6252 12bd
00000270: be3f a83e 11fc a9bd fac6 27bd 1a4c a3bd
00000280: 5077 083e de59 223f 4bce b43c f17e 8bbc
00000290: df7c fe3e d801 a53d 90ab 9c3c dc61 19bd
000002a0: b3b3 4b3e eaf7 be3d b09d 52bd a8d0 45bd
000002b0: 2724 91be cf4e 54bd c8ca ccba 0269 793d
000002c0: c05b b83e fa57 033c f82a 53bd 0de7 583d
000002d0: 741e c5be fe8a 883d b122 c93b 722d e3bc
000002e0: b036 0d3f 8d5d 523d fe6b 3c3c f8c2 ba3d
000002f0: 0868 20bf 5d4e 41bf a0c5 edbb de70 0e3d
00000300: 7419 193f 4028 313f d7a8 4cbd e641 d93d
00000310: 0008 5dbe 7c5e 96bf 0832 cebc 34b0 453c
00000320: 7784 ab3d 59a6 90be 937e 493d 3a0c 1abd
00000330: 291b e0bd d882 a83e 9b32 3e3d 4c28 6bbd
00000340: da07 ffbd 1a28 15bf 0b70 03bd 59b1 f93c
00000350: 80e2 e3bc 23b6 133f 48b8 52bd 6407 1c3d
00000360: f480 553e c4d9 443f f2e6 403d 0a76 89be
00000370: 74d5 5ebe 306f 973e f4cc 3bbd 9d7e 7dbe
00000380: 98d8 3d3e 2db5 123f 37e7 e53c 619f 38be
00000390: c0e8 19be 16d6 1b3f fefb 2abd f8d2 75be
000003a0: e3c2 563e 70fc dd3e ec08 d03c d5c8 06be
000003b0: 9d33 a83e 036e 863d 41cb 6fbd e2ef 28be
000003c0: 30d3 ce3b 9695 e53d 933f fdbc b31d a5bd
000003d0: 2289 793e 375f 59be 5f6a d1bd 7d48 b9bd
000003e0: 7262 5e3e 2930 443e 557b 10be 8871 f0bc
000003f0: bff7 243e db43 a7be 1e00 97bd 5806 0f3c
0.5077195 0.0100129135 0.047641896 0.096644446 -0.070512176 0.39136505 -0.033046532 0.10610653
0.39598075 -0.12447673 0.02814347 0.0894999 0.17686917 0.120541394 -0.0074085677 0.10724917
0.49693918 -0.07986277 0.008745793 0.37242106 0.4326392 -0.5867457 0.03835936 0.31669772
0.11843934 0.61459213 -0.07674789 -0.26590168 -0.018284211 -0.21548933 -0.12421953 -0.22427955
0.17107894 0.38534167 0.030495359 -0.022795698 -0.0087696295 -0.05468988 -0.028083691 -0.091318935
0.12389254 0.30151376 0.05038278 -0.14900286 -0.240097 0.00024007303 0.11244475 -0.20415962
0.41804832 -0.20993839 0.007501579 -0.22227865 -0.08323043 -0.77635884 -0.0012832226 -0.17046086
0.24883741 -0.053664055 -0.10923989 -0.21000077 -0.15135522 -0.6211016 -0.03348661 -0.21977559
0.23314337 -0.14838222 -0.025286535 -0.23578267 -0.24078017 -0.083757155 -0.03264423 -0.18931966
0.1068605 0.056209933 -0.084812835 0.30204964 0.25311044 -0.36457625 -0.057215672 0.29549083
0.07514709 0.045761168 -0.048639506 0.08490426 0.09884321 -0.26674902 -0.100078 0.042731185
0.09424009 0.02173254 0.050397303 0.020122815 0.2430013 -1.6567655 -0.03304929 0.07129267
0.0936095 0.1343971 0.0009507166 -0.24725914 -0.1541086 0.40210053 0.022709005 -0.27269253
0.041495096 0.0051157395 -0.06509554 -0.016338082 0.022359354 0.23541407 -0.06657857 0.020049375
0.06621873 0.021462921 -0.007683589 -0.14671622 0.22093387 -1.5198277 -0.026025545 -0.10695368
0.14766547 0.33925167 -0.04253194 0.121427596 -0.00826399 0.04984308 -0.062027216 0.12434303
0.19507098 0.47397032 -0.11037855 -0.00014804344 0.036106918 0.027589206 -0.053346355 0.11178266
0.14465545 0.40010616 0.1481823 -0.27515408 0.26547775 -0.60359144 0.13914178 -0.18766509
0.0827415 0.66279995 -0.12922001 0.121306494 0.09497392 -0.71706086 -0.098046064 0.12381607
0.18575132 0.6277105 0.050711494 -0.035723098 0.3286113 -0.08300031 -0.040961243 -0.079734996
0.13326764 0.63418376 0.022071024 -0.017028304 0.49704644 0.08056992 0.019124776 -0.03744684
0.19892769 0.093246296 -0.051419914 -0.048294693 -0.28347895 -0.05183297 -0.0015624398 0.06089116
0.360075 0.008016581 -0.05155465 0.052954722 -0.38499796 0.06667136 0.0061381687 -0.027731631
0.5516157 0.05135875 0.011500357 0.091192186 -0.6265874 -0.755102 -0.0072562248 0.034775607
0.59804463 0.6920204 -0.049965706 0.10608272 -0.21585083 -1.1747584 -0.025170341 0.012065936
0.08374875 -0.28251913 0.049192976 -0.037609316 -0.109426804 0.32912326 0.04643498 -0.057411477
-0.124526694 -0.58264315 -0.032089274 0.030480074 -0.027817965 0.57699794 -0.051445276 0.038092986
0.20849973 0.76894784 0.047095247 -0.2684787 -0.21761113 0.29577017 -0.045849755 -0.2475533
0.18539655 0.573077 0.028064353 -0.18029548 -0.15030193 0.60873544 -0.041744225 -0.2400626
0.20972781 0.43356657 0.02539488 -0.13162549 0.32851878 0.06563952 -0.058543447 -0.16497758
0.0063117966 0.11210172 -0.030914104 -0.08062305 0.24368718 -0.21227728 -0.10225367 -0.09047029
0.21717241 0.19158997 -0.14109547 -0.02935101 0.16110133 -0.32668957 -0.07373069 0.00872954

fcs1.bias f4 [256]
00000000: 7d11 8ebe 001a 93be 032d 18bf 2b88 4cbd
00000010: cbda 90be e007 35be e925 40be 3b18 d9be
00000020: 5a0f c7bb f38b 3bbe 0b78 26be 0c39 4abe
00000030: c1b4 0a3d 1f64 0f3e 0b3b a5be 322c 85bd
00000040: f38c 79be 04bf fabe d6b6 13be 12fc 10bd
00000050: ea4b 1f3e 06cd 7cbe 8bcf fbbd c1d0 9c3e
00000060: b7e4 7d3e 8c00 9dbe f282 243e 099a b5be
00000070: 4229 ffbd 327e 16be 5399 ca3c b2d6 eebd
00000080: 075f 88be dbcc d1bd 723d e03b 57e2 27be
00000090: 9e0f 41be 6d55 0dbe bbfc 9dbe 2314 fc3d
000000a0: b6e0 e3bd c3bc 48be c7ca c9be 0723 10bd
000000b0: 5aaf abbe f145 a5bd 7787 443c 8007 42be
000000c0: 7ffb 8bbe b97a b2be 08ed 68bd 6708 ccbe
000000d0: 8b06 3dbe bd53 53be f25a 2f3e 3576 03be
000000e0: b3e9 79be b1ab 6cbe f52d 6abe e8a7 c0bd
000000f0: e61c 023e bdfa 3ebe 7f04 96be fe4c febd
00000100: 7d6f 76be 6ddc b7be 2b19 ae3d 6b96 babe
00000110: 2b73 273e 9f63 bdbe 651b 313e fc51 833d
00000120: 7a91 68be 8141 d0be 7f2a 1bbf c819 9ebe
00000130: d146 aebc e737 b2be 2ce7 60be 12a6 c73d
00000140: 9336 0ebe 0a97 5abe 7c48 14be 95a9 dfbc
00000150: 8afc 603d 2399 b1be f964 0abe 9c61 03be
00000160: f8f4 a43d 22ab b7be 3317 353d 0894 8dbe
00000170: 39ae a0be a8fd 053e 268a 8bbd e04b e3bd
00000180: a4a8 aabd 1815 2e3d 5b15 03be 7d32 873d
00000190: 56e3 0bbf 1b45 27be 268e c6be a50f dabb
000001a0: e06e 0e3e 10ee 8a3e 080f 07bd 3e8d 9abe
000001b0: d5ee 0ebe e2c0 3bbe 5105 97be 9c84 c8be
000001c0: df04 93bd 6c80 0ebf 2c04 18bd 981a 2abe
000001d0: fd5e 3dbe 50f1 9ebe da47 6cbe 2777 8f3d
000001e0: 92cf 64be 65b3 5cbd 849e f63b 2d39 0c3e
000001f0: ef23 0cbe 8c74 70be 6b48 c7be 44d9 82be
00000200: b466 e3bd ff71 bcbe 5613 cabe 3a0e 73be
00000210: 777a fdbc cae7 9ebe 567e ca3e b7d9 b3be
00000220: dda2 cabe 0170 efbe c504 033d 5cee 603e
00000230: 1f45 0bbe a9e6 fcbe 640c 533d 8bb4 a9be
00000240: 18cf 8abe 3503 23be ae5c 4b3d 290b 90bd
00000250: 0cb0 5ebd ad3d 97be a0c5 aabe 844e 85be
00000260: a14c 92be 59bb a1bc 2c0e 91bd c8d5 26be
00000270: 3821 7abe 5dcb 30be abb3 05be 47ac 1f3e
00000280: 3a6a e2be 715e 13bf 489d a7be de25 b8bb
00000290: ea3c 7cbe 613c 40be ec28 6e3a 9503 3bbe
000002a0: 99ff 58bc 64ad 8fbe e386 313e 0b64 1bbe
000002b0: bf29 9abd e408 15be 4a47 04be 2141 a23d
000002c0: 66fd bebe c46b 8abe a6f8 19be a1f7 803d
000002d0: 0d1b 07be a638 acbd 37d2 e7bd 1b20 2cbe
000002e0: 3e73 c1be ad07 16bf b3d2 c8be 1146 473e
000002f0: 5318 383e 1348 1e3d cc07 303e 069c 01be
00000300: 97f4 19be 5c08 35be 9cda c0be 1a72 3cbe
00000310: 52e7 f23d 81c1 54be cfed ed3d 2580 76be
00000320: 67e5 2f3d 7eed f63d 3e5d 57be 0eed f3be
00000330: 7c7c a7bd c1a5 2b3e ad00 febe 0fba 95be
00000340: 4a1b 753d 0fcc a1bd 1c9a b3be dd64 1b39
00000350: edfe 1bbe 0920 833d 19e0 1d3e 90be e4be
00000360: beab 2a3c 2ab6 e7bd 7dfd 3fbe a7bb 0abe
00000370: d053 98be da0f 6cbd 707c c2be 2758 09be
00000380: 5766 8ebe f8cf e0bd f4d1 dfbd 0ce0 b5bd
00000390: b5a2 a9be a85a bd3d 74b5 24be 3711 9bbe
000003a0: bfa8 64be b0a4 7dbd 905c c7be ba01 163e
000003b0: 897c 92bd 02a7 dc3d a3de 94be c1cb dbbe
000003c0: 0bff aebc bc2d 0cbc 8754 e5be 89bd 59be
000003d0: 0811 69bd e03c 353d 1d39 05be 745a 8bbe
000003e0: 0a25 b43d 968e 97bd ed88 fbbd 70dc b1be
000003f0: 7bd3 acbe 03e3 18be 6620 ccbd bf2d debe
-0.27747717 -0.28730774 -0.5944368 -0.049934547 -0.28291926 -0.17678785 -0.18764462 -0.424013
-0.006074828 -0.18315105 -0.1625673 -0.19748324 0.033863787 0.14003037 -0.3227161 -0.0650257
-0.24370174 -0.48973858 -0.14425215 -0.035396643 0.15556303 -0.24687585 -0.12295445 0.30628017
0.24794279 -0.3066448 0.16065577 -0.35469082 -0.12459041 -0.14696577 0.024731314 -0.11662044
-0.26635 -0.10244151 0.0068432624 -0.16394936 -0.18853614 -0.13802119 -0.3085688 0.12308528
-0.111268446 -0.19603257 -0.3941252 -0.035189655 -0.3353222 -0.08069981 0.011995188 -0.18948174
-0.27340314 -0.34859255 -0.056866676 -0.3985016 -0.18459527 -0.20637412 0.17124537 -0.12838061
-0.24405555 -0.2311237 -0.22869094 -0.094070256 0.12706336 -0.18650337 -0.29300305 -0.12417029
-0.24065967 -0.3591036 0.08500894 -0.36442885 0.16352527 -0.36990067 0.17295606 0.06412122
-0.22711745 -0.40674976 -0.6061172 -0.30879045 -0.021274002 -0.34808275 -0.21963185 0.09748472
-0.13888006 -0.2134668 -0.14480776 -0.027302543 0.05492834 -0.34687147 -0.1351508 -0.12830204
0.080545366 -0.3587275 0.044211578 -0.27652 -0.3138292 0.13085043 -0.06813459 -0.110984564
-0.08332947 0.042500585 -0.12801115 0.06601427 -0.5464376 -0.16334955 -0.38780326 -0.006654697
0.13909483 0.27134752 -0.03297332 -0.30185884 -0.13958295 -0.18335298 -0.29496244 -0.39163673
-0.071786635 -0.55664706 -0.037113354 -0.16611707 -0.18493266 -0.31043482 -0.23074284 0.070051484
-0.22344807 -0.05388202 0.0075262208 0.13693686 -0.13685583 -0.23481959 -0.38922438 -0.25556386
-0.111035734 -0.36805722 -0.39467877 -0.23735896 -0.030942185 -0.31036216 0.39549512 -0.3512704
-0.3957738 -0.4676514 0.03198697 0.21965927 -0.13600586 -0.4939473 0.05152549 -0.33145556
-0.27111125 -0.15919192 0.049648933 -0.07033379 -0.05436711 -0.29539242 -0.333539 -0.26036465
-0.28574088 -0.019742655 -0.07082781 -0.16292489 -0.24426734 -0.17265077 -0.13056819 0.15593062
-0.4422167 -0.5756598 -0.32737184 -0.0056197485 -0.24632612 -0.18773033 0.00090850773 -0.18263085
-0.013244533 -0.28061974 0.17336611 -0.15174882 -0.07527494 -0.14554173 -0.1291782 0.079225786
-0.37302703 -0.27035344 -0.15036258 0.062972315 -0.13193913 -0.08409242 -0.11319392 -0.16809122
-0.37783235 -0.5860546 -0.3922325 0.19460322 0.17978029 0.038642954 0.17190474 -0.12657174
-0.1503471 -0.1767897 -0.37666786 -0.18402901 0.11860527 -0.20776941 0.11617624 -0.24072321
0.042943384 0.12057017 -0.21031663 -0.47641796 -0.081780404 0.16762449 -0.4960989 -0.29243514
0.059840478 -0.07900249 -0.35078514 0.00014819526 -0.15233965 0.064025946 0.15417518 -0.44676638
0.010416923 -0.11314042 -0.18749042 -0.13548146 -0.29751444 -0.057632305 -0.37985563 -0.13412534
-0.27812454 -0.10977167 -0.10928717 -0.08880624 -0.33131948 0.09245807 -0.16084844 -0.3028657
-0.22329997 -0.061924636 -0.38937807 0.14649096 -0.071526594 0.10774042 -0.29076108 -0.4292889
-0.021361848 -0.008555826 -0.44791052 -0.21263708 -0.056901008 0.044247508 -0.13010068 -0.27217448
0.08796127 -0.07400243 -0.12281976 -0.34738493 -0.33755097 -0.14930348 -0.09967117 -0.43394276

fc2.weight f4 [128, 258]
00000000: 590a 4ebd cee3 7e3d 98e9 cebe a62e c9bb
00000010: ba5b f13d 3534 63be 6727 0f3c 161c c5be
00000020: 99ed 273e 6e9a 08bf 6e14 943d 3464 02bd
00000030: 3032 32be 82e8 91bd ecad 80bd 73ea b5be
00000040: c0fa c5be 4e40 88bd 4daa a0bc e09a 313b
00000050: 5a45 523e a336 15bc f566 0cbf 3a85 973e
00000060: f6df 7fbc 225e 51bd 3793 8cbe 42fb 97bd
00000070: 5624 39be 76f3 783d 2bda 9ebe 70a0 e93d
00000080: 40f5 c93b 1e7f 17bd 3910 5c3e 74ac dcbd
00000090: a796 a03d 977b 85bd 53b5 193e bf15 83bd
000000a0: 1cce b5bc f039 b73c 37f9 e1bd 7c2c 64bf
000000b0: acf8 28be 7620 5cbe a8e8 013e 7775 85be
000000c0: 4e80 c0bd 13c5 6dbe a255 bc3a cfa0 b53a
000000d0: a925 94bd b4a8 27bf 42b3 40bf c78a 95be
000000e0: c0a0 81bd 23f9 0f3e c863 113e 5a33 3a3e
000000f0: 0005 e8be f4a1 9c3e e6ef a7be a848 b83d
00000100: 2af9 4fbe 0b12 72be d2d1 99be cc4e a7bd
00000110: aac1 12be 21ed 50be 8533 bebd 6c55 073c
00000120: e710 3bbd 4d09 86be 50eb 953c e672 57be
00000130: 9b1a c8be 7d2a 7f3d 3fd2 c4bd 7459 7dbe
00000140: 8d26 30bd 2324 ce3d 49bc 3a3d 65a3 25be
00000150: 283f b1be 15f7 02be c35b 8ebc f8ad 763d
00000160: aad6 853c f7e1 fdbe cab0 d83d d0bf 11be
00000170: ce72 d8be 925e 303e c704 e9be 83a9 babe
00000180: 0eaf 03bf e705 b33d ba9a 5fbd b099 253e
00000190: 6401 77be f057 023e b42f 78bf 3c8e 07bd
000001a0: be6a f4be 75f9 5abe 2cfc 97be 3d48 c1be
000001b0: c687 a9be bddc c2be 3257 513b 2e06 12bf
000001c0: 4829 76bd ab50 6bbc 58e5 16bf 65e0 a6be
000001d0: 70b2 23bd 30c3 a13d b1ba 5d3d 4a8b e8bd
000001e0: 2e62 3abe fcf7 84be be14 4e3c 3188 ed3d
000001f0: a917 bcbd e960 35be 010d 80bf b5a1 0dbf
00000200: 6699 23be 7841 923d fa78 8fbe db64 1cbe
00000210: a9c2 023e 4dea 1bbe cdfb 86be a459 233d
00000220: 6314 663c 4a86 cfbd 71e3 d3be d502 a33c
00000230: e784 59be fd2b 4b3d 1534 40be 70b4 8fbe
00000240: b268 00bf 8f5c 16be 7146 8cbd fe55 d43d
00000250: efec 82bd bcc5 82bd cda9 fe3d f4c5 843d
00000260: 5e2b 803e a1f2 0c3e dfda f33d b0ae 0cbe
00000270: d472 4dbc 02bf d0bd 265e 76bd 3c87 6fbd
00000280: a75c 8c3d e4a6 e63e f814 a5bd 6c5f 03be
00000290: c367 3dbe b525 233d 9b0b b6be 7bc2 0d3c
000002a0: 62ed edbe 5907 76bd 5c62 19be a634 473d
000002b0: e3b9 fdbd 1fe3 c13d 6068 76be 2215 763e
000002c0: 693c b3bd 53d7 22bc a59d 30be 306b 133e
000002d0: 1257 2cbe 5f49 cabe 8d08 76be 45bc 483c
000002e0: f012 b0be 1d52 73be 19e5 173e abb2 b4be
000002f0: 90d6 343c 584c fd3d 267a 19be 48c7 7abe
00000300: 6283 32be 3f67 463e 3979 923c 162a a23d
00000310: 9b62 84be fe8a a8bc 3eab 863e c737 ea3d
00000320: ee43 043e b03b 13bf f56d 82bf a7ec 123e
00000330: 1be1 c3bb b5eb aebc b9ad 9d3d 5362 8abd
00000340: cd2c 35bd 265c b4bd 3b48 313e af96 81bd
00000350: 397d bb3e f7be e8be 9c9f ccbe 0693 1dbf
00000360: 4c43 70be 782b 76bd a274 023b 1313 9fbe
00000370: 2a73 f33c b3d1 b3bb b9a9 15be 9b17 14be
00000380: ad32 303d b863 253e 3bd3 5cbe d17d 89bd
00000390: 47be 8bbc 1200 4a3e 1d90 e13d cda9 9c3d
000003a0: 32e5 d7bd 1ef3 8abe eb82 b23e ce40 323e
000003b0: 8273 ea3c bcb2 1fbe a047 c1bd 165f f8bd
000003c0: db36 11be 38a5 d03e 2ffb 3dbe f6cb 75be
000003d0: d3dc af3c 71ca 06bd 0508 ea3e bec5 f13c
000003e0: 0833 4b3c 5d15 ac3d 87d2 f1bd 2f33 cbbe
000003f0: 48b2 2e3d a313 fc3b 74a2 f33d e6a8 303c
-0.050302837 0.06222897 -0.40412593 -0.006139594 0.117850736 -0.22187884 0.008737422 -0.3849799
0.1639923 -0.5336064 0.07230459 -0.031833842 -0.17401958 -0.071244255 -0.06283173 -0.35530433
-0.3866787 -0.0665289 -0.019612456 0.002710037 0.20534268 -0.009107265 -0.548446 0.2959383
-0.015617361 -0.051115163 -0.27456066 -0.074209705 -0.18080267 0.060779057 -0.31025824 0.11407554
0.0061632693 -0.036986463 0.21490563 -0.1077508 0.07841235 -0.065177135 0.15010576 -0.06400632
-0.022193007 0.022366494 -0.11033862 -0.8913038 -0.16501111 -0.21496758 0.12686408 -0.2606618
-0.09399472 -0.23219709 0.0014368782 0.0013857129 -0.072337456 -0.65491796 -0.75273526 -0.2920744
-0.06329489 0.14059882 0.1419822 0.18183652 -0.45316315 0.3059231 -0.32800215 0.08998233
-0.20309892 -0.23639695 -0.30042893 -0.08169326 -0.1433169 -0.20402957 -0.0928717 0.008260112
-0.045670416 -0.2617897 0.018300682 -0.21039924 -0.39082798 0.06229638 -0.09610414 -0.24741155
-0.043005515 0.10065486 0.04558972 -0.16175611 -0.34618497 -0.12789567 -0.01737774 0.060224503
0.016337711 -0.4958646 0.10580595 -0.14233327 -0.4227509 0.17223576 -0.45511457 -0.36457452
-0.5143899 0.0874136 -0.054590918 0.16171908 -0.24121624 0.12728858 -0.9694779 -0.03309463
-0.47737688 -0.21384223 -0.2968458 -0.37750426 -0.331114 -0.38059035 0.0031942842 -0.5704068
-0.060097963 -0.014362494 -0.589437 -0.32593074 -0.039965093 0.07898557 0.05413312 -0.11354692
-0.18201515 -0.25970447 0.0125781875 0.11598242 -0.091842 -0.1771275 -1.0003968 -0.5532487
-0.15976486 0.071413934 -0.28021985 -0.15272848 0.1276957 -0.15226097 -0.26363984 0.03988041
0.0140429465 -0.101330355 -0.41384462 0.019898811 -0.21242104 0.049602497 -0.18769868 -0.2806735
-0.5015975 -0.14683746 -0.06849373 0.10367964 -0.06392848 -0.06385371 0.12434731 0.06483069
0.25033087 0.1376443 0.11906981 -0.13738513 -0.012539584 -0.10192682 -0.06014838 -0.05847858
0.068536095 0.45049202 -0.0806064 -0.1282937 -0.18496613 0.039830882 -0.3555573 0.008652325
-0.4647017 -0.0600656 -0.14978927 0.048634194 -0.12388971 0.09467148 -0.24063253 0.24031499
-0.08751757 -0.009939033 -0.17247637 0.14396358 -0.1683009 -0.39509103 -0.240267 0.012251918
-0.34389448 -0.23761792 0.14833488 -0.35292563 0.011037484 0.12368077 -0.14988002 -0.24490082
-0.17432931 0.19375323 0.01788007 0.079181835 -0.2585648 -0.02057409 0.26302522 0.1143642
0.12916538 -0.5751295 -1.0189806 0.14348088 -0.0059777624 -0.021352628 0.076991506 -0.06757035
-0.04423218 -0.088066384 0.1731271 -0.06327569 0.36618975 -0.45458195 -0.39965522 -0.61552465
-0.23463172 -0.06010005 0.0019905944 -0.3106924 0.029718 -0.0054876446 -0.14615525 -0.1446213
0.04301708 0.16151321 -0.21564953 -0.06713451 -0.017058505 0.1972659 0.110138156 0.076495744
-0.105417624 -0.2713861 0.34865507 0.17407534 0.028619532 -0.15595526 -0.094374895 -0.12127511
-0.14181082 0.40751052 -0.1855285 -0.24003586 0.021467602 -0.032907907 0.45709243 0.029513236
0.0124023035 0.08402512 -0.11807733 -0.39687487 0.04265049 0.0076927706 0.1189622 0.010782456

fc2.bias f4 [128]
00000000: ed98 e4bc 511b e9bd 3091 e03d 971f 473e
00000010: 790e 13be c7bf 013e 6abd 51bc fd22 d9bd
00000020: da9f 53bc 9ccb 31bd 9ad3 60bd 915d 11bb
00000030: 53c0 41bd 9373 113d 3370 92bd 937d dcbd
00000040: 69af 1f3b 35f7 edbd 92e0 f1be f360 abbd
00000050: fcd4 6bbd 28c7 0ebe 4e7a 343d 20e6 12bd
00000060: 11ec 9ebd 75ca 2fbe 61a6 7abd 940c 8e3b
00000070: 42b2 67bd 1867 bebd 4a90 e9bd 76e3 38be
00000080: a918 febd 73c5 bfbe e880 16be 9381 bcbe
00000090: 10b9 96bd d0ad b93d 3a29 3fbe 3b36 33be
000000a0: f46f b1bd 724a 98bd 3624 97bd 5221 e1bd
000000b0: 7fbe f8bd d5fc 04bf 11a8 303a 5faa 003e
000000c0: 629e b13c bc01 6dbd 72b7 efba 4048 8bbd
000000d0: b522 003e 5a49 f7bc c0e3 56bd b516 54bd
000000e0: 6f12 6cbd 2e55 183e f69d 21bd 524f 1cbc
000000f0: a70e d0bd b23f 17be 2966 91bc ceef 74bc
00000100: 3afd 3a3d becd a8bd d407 1cbe 5741 22be
00000110: 9a82 3a3d 1526 82bd f0ef 80bd a4d5 7e3d
00000120: de5e c2bd 67fb b9be c181 fdbd b086 5bbc
00000130: 9f4f 48be e795 833e 3c43 acbd 42a6 7e3c
00000140: 6078 24bd c994 efbd 75be 20bc fd3b 47bd
00000150: bdaa 15bf 87a9 693c a3c5 df3b 9fff 9f3d
00000160: 0d88 adbd dcb0 8f3e c0d1 32bd 1c00 90bd
00000170: 8b0b a3be dc63 cabd 27a3 aebc 400f c6bd
00000180: 13e5 4ebc 29b4 cb3d c32c c8be 7e33 93bd
00000190: 2698 53bd 5a42 073e 438c c6bd 0db2 e43d
000001a0: 54f0 c9bd 9f6e 2dbc 99ec 4cbc af94 98bd
000001b0: 69f3 b13c fdbc 5d3e 9644 e6bd d685 87be
000001c0: 501d cdbd 6f06 47be 95ac 473d 1853 15be
000001d0: 01f6 3bbe bcbc 40bc 1e0a 09be ec9c bcbb
000001e0: a97c 12be 3964 abbd 6aaa 853d 108d 703d
000001f0: a981 963e d993 94bd 9012 a43c 7240 adbd
-0.027904952 -0.11382163 0.10965192 0.19445644 -0.1436099 0.12670814 -0.0128015075 -0.106023766
-0.01291653 -0.043407068 -0.0548893 -0.0022181014 -0.047302555 0.03551061 -0.071503066 -0.10766139
0.0024366027 -0.116194166 -0.47241646 -0.08368101 -0.057576165 -0.1394316 0.04406195 -0.035863996
-0.0775987 -0.17167075 -0.061193828 0.0043349955 -0.056566484 -0.09297007 -0.11404474 -0.1805552
-0.12407047 -0.3745533 -0.14697611 -0.36817607 -0.073595166 0.09066355 -0.1866807 -0.17501156
-0.086639315 -0.07436074 -0.073799536 -0.109926835 -0.12145709 -0.5194829 0.0006738911 0.12564991
0.021681968 -0.057862982 -0.0018288924 -0.0680089 0.1251324 -0.030186344 -0.052463293 -0.051779468
-0.057634767 0.14876243 -0.039457284 -0.009540396 -0.10159045 -0.14770392 -0.01774891 -0.014949752
0.045651652 -0.08242367 -0.15237361 -0.15845238 0.045534708 -0.0635492 -0.062957644 0.062215462
-0.09490751 -0.36324617 -0.12378264 -0.013398811 -0.19561623 0.25700304 -0.084112614 0.015542569
-0.04015386 -0.116983004 -0.0098110335 -0.048641194 -0.5846365 0.01426161 0.00682898 0.07812428
-0.08473215 0.2806462 -0.043657064 -0.07031271 -0.31844744 -0.09882328 -0.021318031 -0.096708775
-0.012627858 0.09946472 -0.3909665 -0.07187556 -0.051658772 0.13208905 -0.096947215 0.11166773
-0.09860292 -0.010585456 -0.012507581 -0.07450234 0.021722512 0.21654125 -0.112435505 -0.26469296
-0.100153565 -0.19436048 0.04874857 -0.14582479 -0.18355562 -0.011763748 -0.13382766 -0.005756011
-0.14305367 -0.08368725 0.065266445 0.058728278 0.29395798 -0.07254762 0.020028383 -0.084595576

fc3.weight f4 [1, 128]
00000000: 37ef a53c f059 6bbc 88c2 b1bc b390 3c3c
00000010: a202 a13c 041e f73c 7e1d 07ba f717 77bd
00000020: a67f a4bd 6213 9abb be80 94bb f93f f5bc
00000030: 661c 763c 0e2f 943c e6bf 9f3c 36be 873c
00000040: 096a 8f3b ace2 3d3b 0b8d f0bc ee15 9fbc
00000050: ad01 ee3b b738 0b3d eecb c8bc 49d2 c2bc
00000060: a64f ae3d 8121 0fbe be06 0fbd 7da4 b0bc
00000070: 60b8 723c 49a3 ae3c f051 c3bd 76b5 04be
00000080: 4372 413c 8af3 dabc f019 8c3b d828 ddbc
00000090: e450 8ebc 1f79 7a3d f9a1 b9bc ed46 bdbc
000000a0: fcdb 4dba 5019 2c3d 3bb0 7dbc 1232 1bbc
000000b0: b4a4 e83c 6746 84bd c5e1 863c e916 15bd
000000c0: 8604 343c 4bd0 183c d53d 483c 34b4 893c
000000d0: 698d 88bd f089 00bc 0db4 a9ba ef83 9bbc
000000e0: ad77 893b e3b7 9b3c c6c3 88b9 3c52 d8bc
000000f0: c08e 313c a8cd e0bd 0b82 d6bc c587 cdbc
00000100: d95f 4a3c b852 bcbd e2ba afbd 32ce cf3b
00000110: df59 353d 397a af3b 0177 ef3a 9833 a2bd
00000120: c2eb a93c 6e67 b7bc 17c5 303d 1407 c6bc
00000130: dd12 04be 984a 033c ad31 6bbd aa9b 9c3c
00000140: 49d3 ccbc 3ffb ed38 97bf cfbd a47c 85bb
00000150: ac9b f7bc 86b6 4bbd 3bed 8abc 7c30 acbc
00000160: b3be c1bc a4cc 0bbd 089a 29bb 68a2 43bc
00000170: e809 52bd 297e f1bc 1e1d c9bc 94e4 ca3c
00000180: 2375 2f3c df21 a93c c362 26bd 56ac 3dbc
00000190: e0a7 7ebc 37a4 353c 7024 67bb 1fd0 bdbc
000001a0: 413b b4bc 0625 723c b877 d6bc 7b9a 443d
000001b0: 67a7 b3bd 59b4 c53c 6b21 0f3d b43b 5cbd
000001c0: 16e4 9abb c522 9fbc ff07 243d 48a2 d3bc
000001d0: 66ed 783c 2fe4 08bd 42a1 36bd ef12 343d
000001e0: bef9 c6bd 29eb 02be 7518 f13c f97e ff3b
000001f0: 8077 943c da4a 4ebc daa6 c2bc e6ab c33c
0.020255668 -0.0143647045 -0.021699205 0.011509108 0.019654576 0.03016568 -0.0005154236 -0.06032559
-0.080321595 -0.0047020176 -0.004531949 -0.029937731 0.015021419 0.018088844 0.019500684 0.016570192
0.004376654 0.0028974218 -0.02936413 -0.019419637 0.0072633834 0.033989634 -0.024511304 -0.023781912
0.085112855 -0.13977624 -0.03491854 -0.02156281 0.014814466 0.021318095 -0.09537113 -0.12959847
0.011807027 -0.026727457 0.004275553 -0.026997015 -0.017372556 0.061150666 -0.022660242 -0.02310511
-0.00078529096 0.042016327 -0.015483911 -0.009472387 0.02839885 -0.06458741 0.016465077 -0.036398802
0.010987407 0.009327005 0.012221773 0.01680956 -0.06667597 -0.007845387 -0.0012947336 -0.01898381
0.0041951747 0.019008582 -0.00026085804 -0.0264064 0.010837257 -0.10976726 -0.026185056 -0.025089154
0.012351953 -0.09195465 -0.08580567 0.006341719 0.04427516 0.0053551462 0.0018269719 -0.07919997
0.0207423 -0.022388186 0.04315671 -0.024173297 -0.12897821 0.00801339 -0.05742042 0.019117195
-0.025003092 0.00011347839 -0.10143965 -0.004073696 -0.030225597 -0.049734615 -0.016958823 -0.021019213
-0.023650503 -0.034130707 -0.0025879163 -0.011940576 -0.05127898 -0.029479103 -0.024550017 0.024767198
0.01070908 0.020646034 -0.04062153 -0.011576733 -0.015542954 0.011086515 -0.0035269521 -0.023170529
-0.02200091 0.014779335 -0.026180133 0.047998887 -0.08772164 0.024133848 0.03494398 -0.053767875
-0.004726897 -0.01942576 0.04004669 -0.025834218 0.015193319 -0.033420738 -0.04458738 0.04396337
-0.09715603 -0.12785019 0.029430607 0.0077971187 0.018123388 -0.012591088 -0.023761202 0.023885678
