checkpoint_first_actor.pth (torch_old, 47326 bytes, 6 tensors)

fc1.weight f4 [128, 24]
000000 e6 d7 3b 3c 05 16 b4 3e 62 ef 93 3d c0 5f bf 3d
       0.011465048 0.3517305 0.07223393 0.09344435
000010 38 b8 48 bf 9a 74 27 3e 79 dc 32 3d cc 13 93 3d
       -0.78406096 0.16353074 0.04366729 0.0718151
000020 78 86 12 3d 86 8f b3 3e f7 ce f4 3d 87 63 e0 3d
       0.03577277 0.35070437 0.11953538 0.10956483
000030 8f a2 83 3d 34 0f e0 3d d7 ff 17 bd e5 36 03 3e
       0.0642749 0.109404 -0.037109222 0.1281391
000040 cc fc 9d bd f3 87 c4 3e fa 03 50 3d d2 cd 5d 3e
       -0.07714233 0.3838497 0.050785042 0.21660545
000050 ac 3e 4f 3f d8 94 9b bd ea 0f f9 3d a3 86 5b 3e
       0.80955005 -0.07596749 0.121612385 0.21438079
000060 55 37 ed bd 34 62 ef bd ef 2f 1c be e2 40 18 bd
       -0.11582819 -0.11688653 -0.1525266 -0.037171252
000070 41 0f 03 3f 8e 14 29 bf 17 d3 15 bd 82 4c c1 3d
       0.5119515 -0.6604699 -0.036578264 0.09438421
000080 c4 1a 67 be 99 9a 58 be d3 59 de 3c 73 b2 d7 bc
       -0.22568804 -0.21152724 0.02714244 -0.026330208
000090 c8 71 84 bd 5f 93 45 be 38 31 a3 bd 0b ad 3a be
       -0.064670146 -0.19294499 -0.07968372 -0.18230073
0000a0 f7 55 0d bd e4 1d 23 bd ea ca c3 bd 13 b4 69 be
       -0.03450581 -0.039823428 -0.09560187 -0.22822599
0000b0 cd 0f be be ce 28 55 bd 27 ad d3 bd 62 3c b3 be
       -0.3712143 -0.052040868 -0.103357606 -0.35007006
0000c0 a5 7f 59 3e 30 fe 9c 3e aa e7 67 bc 99 70 46 be
       0.21240099 0.3066268 -0.014154354 -0.1937889
0000d0 2a 71 c5 3e bc ea 69 3e 10 4e 91 3d a5 ec 91 be
       0.385629 0.2284345 0.07094967 -0.28500858
0000e0 2a aa 75 3e cf cb 3d 3e b6 d6 4a ba ee b0 1e 3d
       0.23990694 0.18534778 -0.0007737683 0.038742952
0000f0 58 8e be be b8 27 eb 3d 09 be 0d 3d 59 ab 26 3e
       -0.37217975 0.11482185 0.03460506 0.16276301
000100 05 66 3b 3e 44 53 b2 3e 77 f4 4d bd bd 82 52 3e
       0.18300636 0.34829152 -0.050281968 0.20557685
000110 23 dc 67 bf a1 8c c4 3d e4 8c 3d bc cc 46 80 3e
       -0.90570277 0.09597135 -0.0115692355 0.25054014
000120 08 f3 9e 3d 51 f7 08 3f 1b 5b 68 bd 3e 3e 96 3d
       0.07761198 0.53502375 -0.05672751 0.073360905
000130 25 5c 41 3f c7 d1 87 3e 98 70 30 be fd e2 88 3d
       0.75531226 0.26527235 -0.17230451 0.066839196
000140 65 c1 81 bd 1e 7a 1a 3f c1 54 b8 bd da 05 b1 3d
       -0.06335715 0.60342586 -0.090005405 0.08643694
000150 0a 75 50 bc f5 5c 69 3e 95 1c 44 be ec 48 3e 3e
       -0.012723217 0.22789367 -0.19151528 0.18582505
000160 fd 2f 20 3d 55 0e 30 3f 42 8d 79 be 82 c7 d5 3d
       0.039108265 0.6877187 -0.24370292 0.10438444
000170 bc 8d 16 bf 1f 53 f8 3c 33 e5 97 be 96 0b 91 3d
       -0.5881002 0.030313073 -0.29667053 0.07082288
000180 b6 be 22 bd 76 69 34 be 39 a3 06 be a7 d2 b9 bd
       -0.039732657 -0.17618355 -0.13148202 -0.09073382
000190 2a 5a 1c 3f 47 ca e4 bd 3b e9 1f be 34 4f b6 bd
       0.6107508 -0.11171394 -0.15616314 -0.089018255
0001a0 94 f4 fd 3b e4 dc b0 bd a2 97 10 3d 69 e0 47 3d
       0.0077501033 -0.086358815 0.03530086 0.048798
0001b0 bd d8 6a 3e 6b a9 3b be 19 dc 4f 3d a9 4f 19 3e
       0.22934242 -0.18326347 0.05074701 0.14971794
0001c0 49 ee 85 3d 53 85 3a bd 0a c4 a3 be 96 a4 f7 3e
       0.0653959 -0.045537304 -0.31985503 0.48367757
0001d0 b6 1b a6 bc 4c 04 00 be 3c 9d 9e be 54 0e 0f 3f
       -0.020276885 -0.12501639 -0.30979335 0.5588124
0001e0 49 59 08 be 27 a8 34 3f b0 9e c1 3b 4a f0 89 3e
       -0.1331531 0.7056908 0.0059088096 0.26941139
0001f0 28 f1 9e 3e 91 65 0c 3e 55 98 31 bd 60 6d 9a 3e
       0.31043363 0.1371062 -0.043358166 0.30161572
000200 18 c3 7c be 8c b9 10 3f 74 c6 fa 3c d9 46 96 3e
       -0.24683797 0.5653312 0.030612208 0.29350927
000210 db b9 22 3e b2 5f 3b bf 63 ea b6 bd 0e 32 85 3e
       0.1589121 -0.73192894 -0.089314245 0.2601475
000220 96 2b 33 be d3 86 35 3f 7e 7c fb 3b aa 90 6e be
       -0.17497095 0.7090885 0.0076747527 -0.23297372
000230 8a 04 4a 3e ea 56 d1 bf a0 8b b6 3d 82 5a 95 be
       0.19728294 -1.6354649 0.0891335 -0.29170614
000240 47 6e d9 bc 66 c4 04 3d ab 8c be bd 6c 85 9f 3d
       -0.026541842 0.032413863 -0.09304174 0.0778912
000250 44 92 50 bf d4 c1 16 3d 7d cd 67 be 52 e5 72 3d
       -0.81473184 0.036805943 -0.22636981 0.05930073
000260 58 04 8d 3d a4 16 3e 3e 02 57 09 bd 13 38 4c 3d
       0.06885594 0.18563324 -0.033530243 0.049858164
000270 32 a8 25 3d 76 9c 90 3d d5 f2 5e 3d bb c7 cb bb
       0.040443607 0.070610926 0.0544308 -0.006218878
000280 83 a2 0d 3e 07 de 33 3e 9d f9 7c bd b9 38 83 3e
       0.13831525 0.17565165 -0.061761487 0.25629213
000290 56 2b 60 3f 38 b3 b8 3e 7d e6 89 bd c9 86 5e 3e
       0.87566125 0.36074233 -0.06733415 0.21731104
0002a0 94 ed d9 3e 77 56 61 bd d5 e6 01 be 20 6b 23 be
       0.4256407 -0.0550141 -0.12685712 -0.15958834
0002b0 da 47 85 3e 4f 3a d5 3e aa d8 2d bd 60 2c 60 be
       0.2603138 0.41646048 -0.042442955 -0.21891928
0002c0 f4 de fc 3e 50 93 92 3d 13 9c f8 bd 3f ef 8f be
       0.4938885 0.07157004 -0.12139144 -0.28112218
0002d0 10 55 9f 3e e0 21 c8 3e 1f d0 f4 bd 11 53 82 be
       0.31119585 0.39088345 -0.119537584 -0.25454
0002e0 6b 68 eb 3e db 16 46 bd 9b a5 06 bd 16 9a 9d be
       0.45978102 -0.04836164 -0.032872777 -0.3078162
0002f0 9c b0 41 3f 3b 02 c9 bc dc 30 22 3d 1d 04 85 be
       0.7566011 -0.024537196 0.039597377 -0.259797
000300 36 8a 5f 3e e0 38 48 3e 21 b4 88 be 21 58 28 3e
       0.21830067 0.19552946 -0.26699927 0.16439869
000310 e5 fd e8 be 9e 37 f0 be ce 4f 94 be a5 c2 73 3e
       -0.45506206 -0.46917433 -0.28967136 0.2380472
000320 52 eb 81 3e 9b 66 aa 3e a8 35 1e be 0a cf 98 3e
       0.25374848 0.33281407 -0.15450156 0.29845458
000330 94 7f d5 be 17 c7 0b bf 92 0c 16 be 2e c2 2e 3e
       -0.41698897 -0.5460066 -0.14653233 0.17066261
000340 b6 7b c3 3e da 99 9f 3e 75 ca ea 3d d0 c1 9c bd
       0.3818032 0.31172067 0.11464397 -0.07654154
000350 23 88 ce be d7 55 1e bf 27 61 bf 3c 1d ca 44 bd
       -0.4033824 -0.6184973 0.023361756 -0.048044313
000360 a5 f5 10 3f 36 46 04 bf 9b 07 11 3e ba ec 42 be
       0.56624824 -0.51669633 0.14163058 -0.19035617
000370 59 e8 c6 3d 57 77 b4 be 04 38 eb 3d e7 ae 30 be
       0.097122855 -0.352473 0.114852935 -0.1725422
000380 6c b5 fd 3e ef 8a 0a bf ef f3 9c 3d de fe 8b bd
       0.49552476 -0.54118246 0.07663714 -0.068357214
000390 1a 4d 0b 3e 0e 9c c1 be a8 54 69 3e e1 62 63 bd
       0.1360363 -0.37814373 0.227862 -0.05551422
0003a0 ee 22 b6 3e a4 f2 09 bf 37 55 86 be b4 c4 15 3d
       0.35573524 -0.53885865 -0.2623689 0.036564544
0003b0 4d 40 9d 3e 07 4e 14 bf e4 0b a4 be 3c ff 6f 3d
       0.3071312 -0.5793156 -0.32040322 0.05859302
0003c0 e7 40 91 3e e9 c4 a3 bd 9f cf 2e 3d 2d bc 0a 3f
       0.2836983 -0.07996542 0.04267847 0.54193383
0003d0 3b a2 3d 3e e3 87 f8 be 61 aa 16 3e c8 d0 ce 3e
       0.18518917 -0.48541173 0.14713432 0.40393662
0003e0 50 02 9f 3e f0 20 4a 3d c9 22 7b 3d 97 b4 05 3f
       0.31056452 0.049347818 0.06131247 0.52228683
0003f0 a1 a8 70 bd 7a 87 2f bf 7b 60 04 3e 71 30 c2 3e
       -0.058754567 -0.68566096 0.1292743 0.37927583

fc1.bias f4 [128]
000000 e9 09 37 3c 8d 91 b0 bd 14 21 c8 bd a6 73 cd bd
       0.011171796 -0.086215116 -0.09771934 -0.10031824
000010 d1 93 2f be 46 4d 73 3e d3 3f 16 be 7a b0 93 be
       -0.17146231 0.23759946 -0.14672785 -0.28845578
000020 55 3e 75 be 1b 21 72 be d9 1f cf bd 25 a3 2b be
       -0.23949559 -0.23645441 -0.10113496 -0.16761453
000030 b9 c5 09 bf 60 3c 8e 3d a1 b9 dd be 53 52 49 be
       -0.53817326 0.06945109 -0.43305686 -0.1966031
000040 54 a4 a6 bd 9b de d1 bd 3e 28 c6 be 5f ea 66 be
       -0.08136812 -0.10247537 -0.38702577 -0.22550343
000050 4d b1 30 bd 9e 3a a3 3d 7e 9f d5 3c b6 d1 05 be
       -0.043137837 0.07970165 0.026077028 -0.1306828
000060 83 f8 6e be ab 83 46 bd e5 6b 49 be f0 2b ae bd
       -0.23336987 -0.048465412 -0.19670065 -0.08504474
000070 b6 0a 1c 3e 9e 97 bc be 0d 39 a3 3b 03 ea 3a be
       0.15238461 -0.36834425 0.004981166 -0.18253331
000080 98 1a 59 bd f8 e1 31 3e 6c 92 5d 3d de 34 cb be
       -0.053003877 0.17371356 0.054094717 -0.39688772
000090 e5 be 88 3d 27 74 71 be bb c3 28 be b0 52 de 3c
       0.06677035 -0.23579465 -0.16480915 0.027139038
0000a0 bf 3b 81 be 63 4e 15 be 88 f6 5d bd 14 52 8a be
       -0.25240895 -0.14580683 -0.05419019 -0.27015746
0000b0 54 3f 0f bd dc aa 5a 3d 63 57 52 be 52 79 4c be
       -0.034972504 0.0533856 -0.20541148 -0.19968155
0000c0 58 14 5d bc fe 2d a2 bd 06 9b 98 be ae 08 c4 3c
       -0.01349362 -0.079189286 -0.29805773 0.02392992
0000d0 be 37 75 bd b9 7b ad be 5c 39 ea be 40 0b 9f be
       -0.059867613 -0.33883455 -0.45746887 -0.3106327
0000e0 ea 8a 98 be 93 e8 a4 bd ef d6 bd be 4e 84 f3 bc
       -0.29793483 -0.080521725 -0.37078044 -0.029726174
0000f0 09 be af be ad f4 2c 3d b3 5d 98 3e 67 69 cf bd
       -0.34324673 0.04222553 0.29758987 -0.10127526
000100 49 c1 9c 3b 63 88 a5 be a9 04 ef be b6 ba c1 bd
       0.0047837836 -0.32330617 -0.46683243 -0.094594404
000110 53 11 51 3d 5b 99 ad be 27 c3 02 be aa ff 14 be
       0.051041912 -0.33906063 -0.12769757 -0.14550653
000120 26 03 ed bd 23 6d d1 bc 38 d1 0b be 21 d4 a8 be
       -0.11572866 -0.025564736 -0.1365403 -0.32974342
000130 df 48 91 be 20 8e d8 be 76 c1 8f be f9 6b 87 be
       -0.2837591 -0.42295933 -0.28077286 -0.26449564
000140 37 39 65 be 09 a4 99 3e a6 ce 68 bd 26 08 46 bd
       -0.22385107 0.3000796 -0.0568377 -0.048347615
000150 a3 d6 a0 be 25 a3 61 be 4a 3a 03 bc 32 74 99 be
       -0.31413755 -0.22034891 -0.008009503 -0.29971462
000160 5d 24 af be 8c 7b 04 3d 0d 47 3a 3d 8e 0a b6 bd
       -0.3420743 0.032344386 0.045477916 -0.08888732
000170 7d 90 63 be 0c a9 a4 bd ec c4 56 bc a9 86 8a bd
       -0.22223087 -0.08040056 -0.013108473 -0.06763966
000180 de a5 a2 be f9 5d af bd dd 0a 8c be 83 b4 01 be
       -0.31767172 -0.08562846 -0.27352038 -0.12666516
000190 cc 68 69 3e ee 82 16 bb 31 47 d3 bd 92 ff c1 bd
       0.22793883 -0.0022966224 -0.10316313 -0.09472574
0001a0 fd a5 68 be a8 95 a1 bd 3b 55 56 3d 69 3d ce bc
       -0.2271957 -0.07889873 0.052327376 -0.025175767
0001b0 5c 82 e0 be 9b 10 7d be c5 eb cb be 55 1c 35 3d
       -0.43849456 -0.24713366 -0.39828315 0.044216473
0001c0 e2 bb 17 bf 7d b0 10 3c 47 21 0f be 08 6e 63 3d
       -0.5927106 0.008831141 -0.13977538 0.055524856
0001d0 27 0e e1 be fe ff 56 be b4 ce b4 bd 5a 4e 75 be
       -0.4395611 -0.20996091 -0.08828488 -0.2395567
0001e0 ee 5f b2 3d 65 67 c9 bd 36 7f 94 be a4 56 be bd
       0.087097034 -0.09834174 -0.29003304 -0.09293869
0001f0 99 46 0c be 04 6f 91 be c5 4e 1d 3c 84 aa ae 3c
       -0.13698806 -0.2840501 0.0096013 0.021321543

fc2.weight f4 [64, 128]
000000 b7 07 a0 be d3 b6 89 3d 5a 76 9e be ab 99 6f be
       -0.31255886 0.06724324 -0.3094967 -0.23398463
000010 2a 77 d8 bd 3f 68 ee bd 29 0b 31 3e 04 72 40 3d
       -0.10569604 -0.11640977 0.17289414 0.046983734
000020 57 12 05 be dd a1 3c 3d ea 2c 9a be e2 39 b1 bd
       -0.12995277 0.046052802 -0.30112392 -0.086536184
000030 aa a7 72 bf 63 74 eb be fd 3a 7b be b0 0b 0a 3d
       -0.94787085 -0.45987234 -0.24534221 0.033702552
000040 e8 8a f4 be 74 b6 59 3e 9c 29 2b be 1c 6d aa be
       -0.47762227 0.21261007 -0.16715091 -0.3328637
000050 e9 b6 c5 bd fb eb be be ee 2a 3f 3e 10 bb dd 3e
       -0.09654028 -0.37289414 0.1866872 0.4330678
000060 4a 16 13 bc c8 40 88 be 35 37 5e 3e e1 33 68 3d
       -0.008977482 -0.26611924 0.21700747 0.0566901
000070 ab ab 4b bf f8 59 4c 3d 37 7e 65 3e 7a 8b 6a 3e
       -0.7955882 0.04989049 0.22411428 0.22904769
000080 81 50 b2 bd be 82 a8 3e f7 56 6a bd d3 98 16 bf
       -0.08706761 0.32912248 -0.057211842 -0.5882694
000090 de 1a 9c 3e ec 98 b2 be 56 b1 55 be fc 46 8a 3e
       0.30489248 -0.34882295 -0.2086843 0.27007282
0000a0 bf b2 64 3d 09 d9 86 bf 41 22 a2 be b0 2d 4a 3d
       0.055834528 -1.0534984 -0.3166676 0.049359977
0000b0 27 02 9c 3d 95 73 ef be 13 0f 4e 3d b3 32 40 3d
       0.07617598 -0.4676787 0.050307345 0.04692335
0000c0 33 8b 1e bf 49 42 8e be fc c7 0c 3e c7 8e 2a 3e
       -0.6193115 -0.27784947 0.13748163 0.16656028
0000d0 7f de d6 bd 4e a3 2e be 91 44 f0 3e 78 96 9e bd
       -0.104916565 -0.17054483 0.46927312 -0.077435434
0000e0 18 a5 24 3e 3b d8 d6 be b9 77 a3 bd e6 67 ff 3e
       0.16078603 -0.41961846 -0.0798182 0.49883956
0000f0 26 49 d3 3d 41 da d1 3d 5e 1a 4f bb 66 a4 eb bd
       0.10316686 0.10246707 -0.003160141 -0.11505966
000100 9e 33 9f bd f3 49 13 be 16 b0 c9 3e 55 99 f4 be
       -0.07773517 -0.14383678 0.39392155 -0.47773233
000110 44 46 4f 3e 43 88 ae 3e 77 bd dc 3d 2b 20 00 bf
       0.20241648 0.34088334 0.10778325 -0.50049084
000120 6c e9 58 be 9a 33 91 be 2b eb 4c bf 2e a1 b6 bd
       -0.21182793 -0.2835968 -0.8004634 -0.08917461
000130 1c 02 e6 3c 35 0e 1d be 5b 43 28 3e 68 25 5e bd
       0.028077178 -0.15337451 0.16431944 -0.054234892
000140 1d 35 3f 3e 46 4b 6f 3e 9e 79 ec be 14 de 6d be
       0.18672605 0.23368558 -0.46186537 -0.23229247
000150 d5 8a 83 bb 1c fb 53 be f9 39 d7 3e b2 fc 0a be
       -0.004014353 -0.2070126 0.42036417 -0.13572958
000160 e1 0d 51 3c 4c 84 97 be df 37 8d 3d 93 f0 21 be
       0.012759657 -0.29593122 0.06895422 -0.15814428
000170 9c 0e a0 3d 0d df ed 3d 61 e3 b5 bf 83 d1 56 bf
       0.078152865 0.11614809 -1.4210016 -0.8391344
000180 24 67 63 3e 63 8e 2c bd 28 3a cf be bb cb 23 3e
       0.22207314 -0.042127978 -0.40474057 0.15995686
000190 b9 f8 75 be 4b f5 69 be ce 9e 31 3e 16 c2 30 bf
       -0.24020661 -0.22847478 0.17345735 -0.6904615
0001a0 98 48 97 be 82 a9 ab bd 97 f9 42 3e 9c 63 4e be
       -0.29547572 -0.083819404 0.19040523 -0.20155185
0001b0 6a 7f 30 be 93 79 96 be 2d 53 58 3e c0 7e 8f be
       -0.17236105 -0.2938963 0.21125479 -0.2802639
0001c0 64 f1 07 bd d8 b8 31 bf 26 0c 52 3e e3 83 b5 3d
       -0.033189192 -0.69422674 0.20512447 0.08863046
0001d0 a0 b0 13 be 72 ce 99 3e 38 01 e8 be ad 3d 38 3d
       -0.14422846 0.30040318 -0.4531343 0.044980694
0001e0 f4 78 50 bf a6 cf 53 3e ad ed a5 be 5e 13 28 3f
       -0.8143456 0.2068468 -0.32407895 0.6565455
0001f0 1f f2 2b bf 97 80 45 be 18 20 2d bf 5b 3e e3 3d
       -0.6716632 -0.19287334 -0.67627096 0.11095878
000200 27 94 f2 be 33 e0 35 bc 9f 3a ab bd a9 e9 63 bc
       -0.47378656 -0.011100817 -0.083607905 -0.013910689
000210 39 c4 f2 3b e6 d7 3b 3e 09 0a 86 bf aa be e4 3c
       0.0074086455 0.18344077 -1.0471812 0.027922947
000220 89 35 c8 bc 30 9f 0c 3e 18 01 93 be f9 ef 0c bf
       -0.02443959 0.137326 -0.28711772 -0.5505367
000230 db f0 03 bd d4 54 ca be a6 3c 98 3c 66 44 58 be
       -0.03221212 -0.39517844 0.018583607 -0.21119842
000240 7c 8a 1e bf 1f 56 10 3e e4 92 9c be 7b 0f ef bd
       -0.6193006 0.14095353 -0.3058082 -0.116728745
000250 bd 0e 2f bd 26 6a b7 be 49 0f d9 3e c5 8c 1c 3e
       -0.042738665 -0.35823172 0.42394474 0.15288074
000260 42 fd a0 3e 67 cb a7 be 9d 97 cd 3e d0 0e 6b 3c
       0.3144322 -0.3277237 0.40154734 0.014346793
000270 aa 32 10 bc 51 ec f6 3d 30 46 fa be 7f f8 7b 3e
       -0.008801142 0.120567925 -0.48881674 0.24606512
000280 10 3c ee 3c 57 3f 59 3e b4 73 b7 3c 8b 07 ce be
       0.029081374 0.21215568 0.022394039 -0.4024013
000290 bc ff fb 3d 58 16 1b 3e 81 5b 07 be 40 44 f7 be
       0.12304637 0.15145242 -0.132185 -0.48294258
0002a0 ca bf 74 be 98 9f a2 bf bb fe 7c bf 78 b2 14 3e
       -0.23901287 -1.2704954 -0.9882619 0.14521205
0002b0 3f af 65 3e 32 26 f8 3e f6 76 85 bd 7e 80 b8 bc
       0.22430132 0.4846664 -0.065168306 -0.022522207
0002c0 11 b6 26 be 3b 50 ee 3d 24 09 c5 3c de a8 16 be
       -0.1628039 0.116363965 0.02405221 -0.14712855
0002d0 18 8e fc be 3a a7 cc 3c d3 39 7d 3d 9d 04 ce bd
       -0.4932716 0.024982084 0.061822724 -0.10059474
0002e0 62 94 e7 3d 21 d6 01 be 82 e9 29 bf 86 41 7c bd
       0.11307599 -0.1267934 -0.6637193 -0.061585926
0002f0 5f d4 3d 3d c9 d3 31 bf b3 62 69 be d2 d4 e0 bd
       0.04634511 -0.69463784 -0.22791557 -0.10978092
000300 5e 85 76 bd 5a 05 d9 3e 7d dc 1f bd 89 7e c5 3e
       -0.060185783 0.42386895 -0.039028633 0.385731
000310 9b 30 b0 3e d6 41 69 bf d7 e9 a3 3d c9 fc d2 be
       0.34412083 -0.9111608 0.08003586 -0.41208485
000320 91 d8 0f bf 5c 8f 24 bf 6c 2a c6 3d 0e b7 77 3e
       -0.5618983 -0.6428125 0.0967606 0.24190924
000330 df db e7 be 3c 6d 37 bf 21 e5 8a 3e ec d4 11 3e
       -0.45284936 -0.71651053 0.27127936 0.1424138
000340 1f 29 54 be 8b 1b 22 3e 85 de 42 be f8 61 22 3e
       -0.20718811 0.1583082 -0.19030197 0.15857685
000350 ae b9 8b be c7 7f 58 be d6 17 da 3e 7e 71 a2 be
       -0.272901 -0.21142493 0.4259631 -0.31727213
000360 5e f5 a0 bf 18 f1 88 be bf d5 f7 be 60 2a 26 bf
       -1.257488 -0.2674644 -0.48405263 -0.6490841
000370 da 6a 0c be 22 cc ee 3d c5 1e 5e 3d 7b 03 04 3f
       -0.13712636 0.11660029 0.054228563 0.5156781
000380 a9 9e 65 bc f8 23 46 bf 6b fa 3d be 17 90 dc 3d
       -0.014014878 -0.77398634 -0.18552558 0.107696705
000390 fd b6 63 be bb 18 6a be 10 10 95 bd be 42 04 c0
       -0.22237773 -0.22860996 -0.07278454 -2.0665736
0003a0 d8 1f 9b 3d c4 31 02 3e b7 e3 9e 3d fd a9 fc 3c
       0.07574433 0.12714297 0.07758277 0.030842775
0003b0 89 58 88 3e aa 0b 04 3e 15 83 d2 bd 67 a8 d2 be
       0.26630047 0.12895074 -0.10278908 -0.41144106
0003c0 39 ca 00 3e d3 c5 31 bf 1d a6 a5 3e 21 46 79 3d
       0.12577142 -0.6944248 0.32353297 0.060857896
0003d0 47 9c a4 be 59 61 49 bc ca 97 ab 3e f8 b1 90 be
       -0.3215048 -0.012291276 0.33514243 -0.2826078
0003e0 ce 62 c1 be 5f e0 7a 3e e9 d1 9e bd ce 2f 41 3e
       -0.37770694 0.24499653 -0.07754881 0.18865892
0003f0 87 da fd ba 68 b0 10 3e 11 9e a7 bf 4f 85 8b 3e
       -0.0019367494 0.14129794 -1.3095113 0.27250144

fc2.bias f4 [64]
000000 24 5e 90 be 54 a8 92 be 89 03 ed bd 34 aa 26 3d
       -0.28196824 -0.2864405 -0.1157294 0.040689662
000010 77 ed a7 be e9 e3 13 bd 81 89 e3 bd cb 1b 16 be
       -0.3279836 -0.036106024 -0.11110211 -0.1465904
000020 e2 e8 13 bf be e8 e2 bd 4d fa c0 be 4d 1f 47 3e
       -0.57777226 -0.11079548 -0.37690964 0.19445534
000030 8b 5c 2e be 47 0f 1d be ba 02 2d be 7e f1 06 bf
       -0.1702749 -0.15337859 -0.16895571 -0.5271224
000040 1c fa 61 be e0 d3 5c be c6 b1 d4 be 84 6e b2 be
       -0.22068065 -0.21565199 -0.4154188 -0.34849942
000050 33 00 25 be 67 fb 0b 3e 25 c0 ea bd e3 c3 7a be
       -0.16113357 0.13670121 -0.1146243 -0.24488787
000060 1e 7a 77 bd 03 8e 12 be 6b fd e2 be 06 ee f1 be
       -0.060419194 -0.14311986 -0.44333968 -0.4725191
000070 28 60 79 bd b0 3f 46 be b0 6e e9 be 62 fb 22 ba
       -0.060882717 -0.19360232 -0.4559226 -0.00062172685
000080 44 de 88 be 86 e6 4d 3d 19 c7 06 bd 90 0c f8 bd
       -0.26732075 0.050268672 -0.032904718 -0.12111771
000090 48 0d 11 bd af 95 e8 be c7 39 22 be 64 48 af bd
       -0.035413057 -0.454267 -0.15842353 -0.08558729
0000a0 36 b4 5a be 67 25 d6 bd 52 f5 8c be e0 2e 51 be
       -0.21357808 -0.10456353 -0.27530915 -0.20428038
0000b0 c7 82 53 be e5 8c e4 bd 63 38 f9 bd 79 cc a1 be
       -0.20655356 -0.11159686 -0.12168958 -0.31601313
0000c0 d6 8b b2 be 8c 12 99 3a 01 7f 03 3e 67 e9 cb be
       -0.3487231 0.0011678501 0.12841417 -0.3982651
0000d0 cc cf 16 be d0 b8 a1 be 06 97 0b be cf 88 6a be
       -0.14727706 -0.31586313 -0.1363183 -0.22903751
0000e0 3e 15 e5 bc f3 ed 18 be ed ff 52 be 7d 6d 95 bd
       -0.02796423 -0.1493452 -0.2060544 -0.07296274
0000f0 82 8d 3f 3d 8f e8 3c be 30 d3 4d be bf ad 81 be
       0.04676581 -0.18448089 -0.20100093 -0.2532787

fc3.weight f4 [2, 64]
000000 5a 80 d1 3e b0 60 3f 3f 3a 6c 3d 3f 54 61 cd 3d
       0.40918237 0.7475691 0.73993266 0.100283295
000010 7d 38 0d 3d 6f f0 3d 3e 0f c7 4c be 07 10 2f 3d
       0.0344777 0.1854875 -0.1999781 0.042739894
000020 90 24 86 3e 9c c5 08 3e 34 4c 42 bf 7a 6c ef 3c
       0.2619977 0.13356632 -0.75897527 0.02922653
000030 61 90 3f bc 7c 25 90 3e 44 79 b9 be a2 ac 8b bf
       -0.011692137 0.28153598 -0.3622533 -1.0912058
000040 84 aa 69 3e c5 d3 05 3f 4b 23 d1 bc 09 28 9b 3e
       0.22818953 0.5227626 -0.025529524 0.30303982
000050 fa b5 33 be 2b 4c f3 3d f8 cd 33 3e 73 db 23 3d
       -0.17549887 0.11879762 0.1755904 0.040004205
000060 e3 c6 49 3e 1b 7d e3 bd 23 46 bf be e6 5d bd 3e
       0.19704776 -0.11107846 -0.37358198 0.369857
000070 37 27 32 3e 0f f7 21 3e c1 1c ac be 6f ef e7 be
       0.17397772 0.15816902 -0.33615687 -0.4529986
000080 13 d3 7c bf 5f e5 ef bc 9b a9 13 3c 01 8f aa 3e
       -0.98759574 -0.029284177 0.009012605 0.33312228
000090 1b ea a4 3c 50 71 11 3f 86 a8 e7 3e 22 bd b9 bd
       0.020131161 0.56813526 0.4524576 -0.09069277
0000a0 9a ed 92 be 69 00 47 be f9 59 1e 3f 82 8e 89 bb
       -0.286969 -0.1943375 0.6185604 -0.0041978965
0000b0 cb 20 06 3e b8 79 f1 3f 16 9e 80 be ea 08 23 3b
       0.13098447 1.8865271 -0.2512061 0.002487714
0000c0 d9 b0 20 3f 23 b0 b9 bc c7 ca 25 be 8c fc bf bd
       0.6276985 -0.022666996 -0.16190635 -0.09374341
0000d0 b0 a6 1a bf d2 f6 34 bf e5 e9 5b be 4e 02 01 3f
       -0.60410595 -0.7068912 -0.21475942 0.5039414
0000e0 a8 73 22 3e 39 77 97 be ab c3 bd bd c1 ce 17 3e
       0.15864432 -0.29583147 -0.09265836 0.14824964
0000f0 ac 42 6c bd 15 cf 34 bd 03 b0 a0 bd c5 fe a4 3d
       -0.05768077 -0.0441428 -0.078460716 0.08056406
000100 f9 49 bc 3d 8e 77 0a 3e b0 7e 29 3f cc 06 1c 3e
       0.09193797 0.13522169 0.66208935 0.15236968
000110 de 15 39 bf 10 e7 c9 3e 32 19 03 3e 69 01 a3 3e
       -0.7229899 0.394341 0.1280258 0.31837013
000120 2b 6b 8e bd 68 51 b0 bd 98 1f d9 be dd ac c9 be
       -0.069540344 -0.08609277 -0.42406917 -0.39389697
000130 b1 f6 ed bb d6 61 c8 be 59 e5 02 bf aa 33 2d bf
       -0.007262074 -0.39137143 -0.51131207 -0.6765696
000140 0a 79 9e bc d7 0c 82 3e 58 42 6b bf 09 a1 e6 3d
       -0.019344825 0.2540042 -0.9189811 0.11261184
000150 e3 d7 82 3e 07 ec 37 bc ca 92 1b bd 89 e3 c0 3e
       0.25555333 -0.011225707 -0.037981786 0.37673596
000160 4f df e9 be a0 17 22 3f 0c b2 2f bf 35 f3 12 bf
       -0.45678183 0.633173 -0.6863105 -0.57402354
000170 d8 ec fb bc d0 cf 58 3f 77 94 90 3e 69 7f 0e be
       -0.030752584 0.84692097 0.2823827 -0.1391579
000180 20 5c 88 3c e6 92 4d be 0d d0 08 3f 99 f8 64 3e
       0.016645491 -0.20075569 0.5344246 0.22360457
000190 70 86 c1 bf a2 f3 af 3e 50 a3 95 bf 9c 9f 85 bf
       -1.5119152 0.34365565 -1.1690464 -1.0439334
0001a0 d3 f6 a1 be bf 1d ad 3e 30 d5 d9 3e 31 10 35 bf
       -0.31633624 0.33811757 0.42545462 -0.7072783
0001b0 e0 c0 1d 3f b0 44 a6 be 63 23 a0 bd b9 e7 d4 be
       0.6162243 -0.3247428 -0.078192495 -0.4158304
0001c0 19 26 0a 3f 2b a0 24 3c 08 02 51 be ad 7e 95 3f
       0.5396438 0.010047953 -0.20410931 1.1679283
0001d0 04 39 4d 3f 4a fe 43 3d 20 49 3f be c4 54 d3 3d
       0.80165124 0.04784993 -0.18680239 0.10318902
0001e0 1b 3f 02 bf c0 b6 f9 bd 27 76 cd 3f 0f c4 a9 3e
       -0.5087754 -0.1219306 1.6051682 0.33157393
0001f0 42 24 32 3f 2e 98 bc be 5e b2 92 3e 5c c0 bb be
       0.69586575 -0.36834854 0.28651708 -0.36670196

fc3.bias f4 [2]
000000 db 93 92 bc 73 30 78 bd
       -0.017892769 -0.06059308
